multiple_agents/checkpoint_actor.pth (torch_old, 601173 bytes, 10 tensors)

normalizer.weight f4 [33]
00000000: 38d9 5d3f 2479 913f 9267 813f b4b0 b53d
00000010: 0289 5c3e 1cb4 3e3e d40d 19be b2f2 a63e
00000020: 2373 c93e 5eb0 d33e 1f44 033f 0f8a 003f
00000030: 5705 053f 5e40 7a3f ccc0 6a3f feaa b13f
00000040: ec22 133e ca3a 723d 7cc2 1f3d c04c 7abd
00000050: 3024 ff3e 8e8a 0b3f 6b5a ab3e 8521 9a3f
00000060: e04b 4b3f d01c 6a3f 61cb c53f 9021 143d
00000070: e1b6 813f 9030 bf3e 1236 9c3e 9497 6e3f
00000080: 7d71 f23f
0.86659575 1.1365094 1.0109732 0.08871594 0.2153664 0.18623394 -0.14946681 0.32607037
0.39345655 0.41345495 0.5127582 0.5021066 0.5196127 0.97754467 0.91700435 1.3880308
0.1436879 0.059138097 0.039003834 -0.06110835 0.49832296 0.5450829 0.3346742 1.2041479
0.7941265 0.91450214 1.5452691 0.03616482 1.0133935 0.37341738 0.30510002 0.9320004
1.8940884

normalizer.bias f4 [33]
00000000: 5d1d 373d 5ad2 d8bd d16b 133e 7712 febd
00000010: ed53 5d3c 54f2 22bb 2606 ff3d f47f 963d
00000020: 1786 b63d 6714 d63e 7ce6 5d3e 9a9a debd
00000030: 032c af3d 6fc3 953d cf77 703b b1d5 983e
00000040: 10d0 a4bc 7667 ad3e 91e6 5bbe 32b5 09be
00000050: 1c71 70be 9787 263e e50e 8f3e e222 e53d
00000060: 8f5a d93c 3592 853e 9a56 58be 96cf 563e
00000070: c618 9d3e f9a9 44be 8961 4d3e 984a 633e
00000080: a0f9 e6bd
0.044705737 -0.105869964 0.14396597 -0.12405866 0.013508779 -0.0024863677 0.124523446 0.07348624
0.08912294 0.4181244 0.21669954 -0.10869332 0.085533164 0.073126666 0.0036692505 0.29850534
-0.020118743 0.33867997 -0.21474673 -0.13448027 -0.23480648 0.16262661 0.2794105 0.11188294
0.02653244 0.2608811 -0.21126786 0.20977625 0.30682963 -0.19205464 0.20056738 0.22196424
-0.11278081

normalizer.running_mean f4 [33]
00000000: 3c56 ae3f d2fd 05c0 fff6 65bf bb2e 3c3f
00000010: 9009 173e 5ae8 d4bb f6a9 eebd eef8 f4bb
00000020: f8ba 9b3c 3470 043c cfea bb3c 3285 6cbc
00000030: b55b 02bc 683e bb3f 490e 3ac0 301d f7be
00000040: 640a 45bd fc4a d13c 6781 11bd 6e6f bbbd
00000050: 3b3c 5a3e d73d c8bc a579 4f3c d297 95b9
00000060: 8685 bc3d 713a 233c 5a3a b03c fcff 7fbf
00000070: c7fd 26bd 0000 0000 fcff 7f3f 0000 0000
00000080: bd12 2f3c
1.3620067 -2.093617 -0.8983001 0.73508805 0.14749742 -0.006497425 -0.11653511 -0.007475964
0.019010052 0.008083392 0.022939114 -0.014436053 -0.007956435 1.462842 -2.907122 -0.48264456
-0.048105612 0.02554845 -0.0355238 -0.09152113 0.21312039 -0.02444355 0.01266328 -0.0002853261
0.09205155 0.009962664 0.0215122 -0.99999976 -0.040769365 0.0 0.99999976 0.0
0.01068562

normalizer.running_var f4 [33]
00000000: 1b93 5340 667c 963f 3d9e 9140 b421 0d3e
00000010: d7e3 8d3d 8569 ad3d faa8 073e 0ff3 0f3f
00000020: 3034 8c3d 41ba d03d f315 0040 1336 0a40
00000030: 6855 3940 7c0a 8141 6cd8 1f40 8819 a541
00000040: c97a 493e 54d8 8c3e 6bbe 303e b6d6 af3e
00000050: e2cc 6d40 442f 153f c5db c23f 1317 e140
00000060: 4785 7e40 abc2 1941 6933 fd41 0400 0000
00000070: 9a4e 0142 0400 0000 0400 0000 0400 0000
00000080: f41e a93e
3.3058536 1.1756713 4.550566 0.13782388 0.069282226 0.08467392 0.13248053 0.56230253
0.068458915 0.10191775 2.0013397 2.1595504 2.8958378 16.13012 2.4975843 20.637466
0.19675745 0.27508795 0.17260139 0.343435 3.71563 0.58275247 1.5223318 7.0340667
3.9768846 9.610026 31.650103 6e-45 32.32676 6e-45 6e-45 6e-45
0.33031428

fc1.weight f4 [512, 33]
00000000: 8c45 9d3e 220d ccbd 4abe dc3d b7d2 1d3d
00000010: 1e81 b5bc 9a8f 57bd 74f8 e4bd 5d46 e6bd
00000020: f37c dfbc d288 6a3d ff69 d73e ef12 e6bd
00000030: 0584 05bd 5840 07bf 2428 843e 9c7a d7bd
00000040: 12c0 26be 3af5 edbd 4ca1 2d3e b8d3 24bd
00000050: b56f bbbd 621a 86bd 1e86 d2bc 3ed8 eabe
00000060: 3dc8 953e 5ec2 4fbd 63ab cc3e 7ca2 c8bd
00000070: d783 c33e ff1f 143e 762d fcbd e3c0 24be
00000080: cc71 b63d 0ea7 4abd 0bb7 38be 2ec0 aa3e
00000090: b6f9 95bd d679 323b 4ea4 e1bd 2088 13bb
000000a0: 53db 833d 663e 0f3e 3101 1b3c 6b3f 15be
000000b0: 62bd 25bd 843d 873d dab2 ea38 f30a ae3e
000000c0: 8175 59be b42d 75bc fb55 993d 0592 febd
000000d0: 39b0 c8bd 434b 023d bf28 d4bd db81 97bd
000000e0: 029f fd3d 1c32 183c ba33 38be 3d4b 433e
000000f0: 78b4 9f3d 6c35 98be f408 9bbd c3f1 a03d
00000100: d641 d63d 41be 723d 37f7 c9be f0d8 9cbe
00000110: ee03 5abc d143 20bd 07aa e1bd 3f23 cd3c
00000120: cfa9 b73d 59d7 133d a850 54bd efab 3cbe
00000130: 8736 f9bd f40b 7ebd 2aa1 f8bd 518a b73e
00000140: a714 ba3e 7604 dbbc 3c87 e13d 7ccd 0abd
00000150: 76ee e1bc 8163 143e 6fb7 e7bc a3fd 1abd
00000160: 7cb6 133d c62e 8e3e cc9c 213e dc32 583d
00000170: cdaa 25be 93e6 623b 78ca 1ebe 5690 ebbb
00000180: c45d 323b 7bc2 863d 182b 713d e1fc 5ebe
00000190: a63f 893d d73b 1dbe e4fb c43e a6a9 333d
000001a0: 6499 f63d 90b5 2dbc a2f3 3dbd 0478 f3bd
000001b0: b7ea 38be 7c37 113d faa1 393c 23c8 33be
000001c0: 326b 073f 37b3 213e fbda bf3d 0c01 46bc
000001d0: 070f 52be f7be 283e 9585 b7bd e865 583d
000001e0: 767e d7bd 7cf6 623d 2ea9 fbbd 09e8 3b3d
000001f0: c17d 23be 8946 7d3e ac5a 16be 0c96 d2bd
00000200: 0f90 ff3d f935 3abe 9b7c 36be 9cf8 473e
00000210: 6adb b83d 58c3 32be fc54 3abe aa6d c23c
00000220: a091 b13d 210d 533e 61e1 ecbb be0a 9b3d
00000230: 9bb0 ce3d c5d9 1bbd 8539 e8bd 5c6e d03d
00000240: 02b2 fd3c 7009 2dbe 2bdb 01bd c0e8 0cbe
00000250: ff48 21bd 2932 c5bd c4fe ad3c 70de 523d
00000260: 54ad 42be bd44 ea3b f12e 92bd 61a8 c3bb
00000270: 62e9 72be 904f 4a3e 7f67 233e b8bb 9b3d
00000280: e996 85be e856 c83a 3fe3 623d f811 c73c
00000290: 6d3f c33d 8c2d 54be b0f2 27bd 1588 a53d
000002a0: 71c2 193d 6c63 393d 59bf c7bd 1cd6 50bd
000002b0: b1f2 a73c c7bd 94be e3ee 9fbc 292a 303b
000002c0: 2e89 af3d 13b3 4e3e 63e8 95be 7906 10bc
000002d0: a742 55be bbd4 c03e 570e 8bbd 1299 e03d
000002e0: b6c2 aebc cbe3 26be 14ca f3bd 44f0 5abd
000002f0: f8dd afbe c740 3ebd 6c61 06bf 2e86 9d3e
00000300: 4534 6bbd b866 da3c d04a 183d af99 9f3c
00000310: 03f4 553b 8b4f 40be 9e58 39bd 6151 573d
00000320: 90c8 68be 2466 96bd 5877 cf3d 0a28 c23c
00000330: db42 41bd a642 923d 25e1 303e 8059 10be
00000340: a77b f03d 2d57 983d 5622 44be 8d05 a33e
00000350: 29bf 2ebe b580 703e a1dc c0bc d459 4c3d
00000360: df32 47bd a032 613d dfae 01bc 6580 3bbd
00000370: 05fe 05be 7873 4d3e 6d77 e8bd f89c 67bd
00000380: 9047 8cbd e528 8d3d f03f 88be 85a0 90bd
00000390: 7458 153e 64ea b23d 055e a73d 2cf6 5ebe
000003a0: fe6d 50be 0d99 c4bd 9dd1 d6bd 4039 0d3e
000003b0: 47ee 88bd 5654 26be a860 9abd 5351 a33c
000003c0: 00ed 16be f305 49bd f9f9 7bbd e999 24be
000003d0: 42ce 073e 7364 973d 7709 5b3e 1b72 613d
000003e0: cfc3 e7bc a95c 113e 540f b93d f4fb 87bd
000003f0: 9885 c63c 7a09 c23d 00e4 513e 7dd6 d93c
0.30717123 -0.099634424 0.10778482 0.03853103 -0.022156294 -0.052627183 -0.11180201 -0.112438895
-0.02728126 0.05725939 0.42073056 -0.1123408 -0.032596607 -0.52832556 0.25811875 -0.10521433
-0.16284207 -0.11619039 0.16956061 -0.040240973 -0.09152166 -0.06548001 -0.025698718 -0.45868105
0.29254332 -0.050722472 0.39974508 -0.097966164 0.38186523 0.1446533 -0.123133585 -0.16089205
0.08908424 -0.049475722 -0.18038575 0.33349746 -0.07323019 0.0027233264 -0.11017667 -0.0022511557
0.06438317 0.13988647 0.009460733 -0.14574973 -0.040463813 0.0660353 0.00011191303 0.3399273
-0.2123623 -0.01496451 0.074871026 -0.12430195 -0.09799237 0.031810056 -0.10359334 -0.07397815
0.12383844 0.009289291 -0.17988482 0.1907167 0.077980936 -0.29728258 -0.07570067 0.078586124
0.10461776 0.05926347 -0.39446422 -0.3063426 -0.013306601 -0.039127175 -0.11018758 0.02504122
0.08967935 0.036094043 -0.051834732 -0.18424962 -0.121686034 -0.06202312 -0.121401146 0.35847715
0.3634388 -0.026735526 0.11012122 -0.03388737 -0.027579527 0.14491083 -0.02828571 -0.037839543
0.036062703 0.2777006 0.1578247 0.05278288 -0.16178437 0.0034622296 -0.15506923 -0.007188837
0.0027216533 0.06580063 0.058878988 -0.21776153 0.06701593 -0.15354858 0.38473427 0.04386296
0.12040976 -0.01060237 -0.046374924 -0.118881255 -0.18058287 0.035453305 0.011330122 -0.17556815
0.5289794 0.15791021 0.09367939 -0.0120852105 -0.20513545 0.16479097 -0.089610256 0.05283156
-0.105221674 0.055410847 -0.12288128 0.045875583 -0.1596594 0.24733938 -0.14683026 -0.102825254
0.12478649 -0.18184651 -0.1782097 0.1952843 0.09026225 -0.1745733 -0.18196481 0.023733933
0.08670354 0.20610477 -0.0072290157 0.07570408 0.100922786 -0.038049478 -0.11339096 0.101772994
0.03096867 -0.16898131 -0.031703155 -0.13760662 -0.039376255 -0.09628708 0.021239646 0.051481664
-0.19011432 0.0071493075 -0.071378596 -0.005971 -0.23721841 0.19756913 0.1595745 0.07604164
-0.26091698 0.0015284689 0.0553925 0.02430056 0.09533582 -0.207205 -0.04100293 0.08082596
0.03753895 0.04526083 -0.097532935 -0.05098544 0.020501466 -0.2905104 -0.01952309 0.0026880598
0.08571087 0.20185499 -0.2927886 -0.008790606 -0.20826207 0.376623 -0.067898445 0.10966696
-0.02133308 -0.16297834 -0.11903778 -0.05345179 -0.34349036 -0.046448495 -0.52492404 0.30766433
-0.057422895 0.026660308 0.03718072 0.019482462 0.0032646663 -0.18780343 -0.045250528 0.052567843
-0.22732759 -0.073437005 0.10130185 0.023700733 -0.0471829 0.071416184 0.17273386 -0.14096642
0.11742335 0.074385025 -0.19153723 0.31840172 -0.1706511 0.23486598 -0.023542704 0.049890354
-0.0486325 0.05497992 -0.007915228 -0.045776743 -0.13085182 0.20063579 -0.11350904 -0.05654618
-0.06849587 0.06892566 -0.2661128 -0.07061867 0.14584523 0.08736113 0.0817223 -0.21773595
-0.20354459 -0.095995046 -0.10489199 0.1379137 -0.06686073 -0.16243109 -0.07537967 0.01993624
-0.14738846 -0.04907794 -0.06151769 -0.16074337 0.13262275 0.07392206 0.2139033 0.05504046
-0.028291611 0.14195503 0.09036127 -0.06639853 0.024233624 0.09474464 0.20497131 0.026591534

fc1.bias f4 [512]
00000000: 4205 c6bd 0efc b03d da6d 163e cb82 93bd
00000010: 3bc6 85bd 65ed 4c3e 9bf6 923d d3b1 513e
00000020: 6120 893d 14b4 e7bd d29d 42bd 4919 87be
00000030: c656 93bd 9b3c 843d 61ea cfbd b08f 363e
00000040: 5d81 17be 2b34 913d 9801 183c 3dab e5bd
00000050: 5228 abbd 6aa9 bd3b 2339 433c 692d 223e
00000060: bd86 6fbe 2b73 39bd 5319 6bbc 9656 a7bd
00000070: 60d8 b5be 4bc5 23be 51ab 013e 9b97 02be
00000080: a615 b33d f99d 493d 3d6c 57be 6595 de3d
00000090: 4bfe 52bb ba14 83bd 9a7b b8be 5092 80bc
000000a0: 09af 073e 11e0 ddbd eb4f b0be 670f 063d
000000b0: e4cb ccbd 62df 8a3e 5525 f7bd 6bde 1d3e
000000c0: 8feb 9d3d b07f 6ebe 83bd 20bd 8d37 1c3c
000000d0: e2ff 55be 91c9 18bd c9bd 8ebe 724c 143d
000000e0: a678 2cbe b293 48be 5fa5 05be d98f 08bd
000000f0: 2882 4e3e 0ec5 84bd dcd5 923d ffce 993c
00000100: e83c cfbc fd81 003d 1060 333e a80b 53be
00000110: ef72 953d 3ae1 0bbe 8740 08be 7866 babd
00000120: d577 bebd d8b2 a93c 841c 33be 329b 33be
00000130: 3a2c 5dbd d6ac c13b b888 70bd de94 ee3d
00000140: a31e b93d 2456 e0bd c6ee 4fbd c09e afbc
00000150: aad0 b7bc 9df6 9abd c3be acbd 113b 083e
00000160: 23d4 6abd 76a5 bfbd 78b4 04be 565c 4d3d
00000170: 893c 443d 184d 313e a32c e2bd fc2e 5abd
00000180: 0279 f1bd 9700 d4bc b96a b4be 1f8d 6f3b
00000190: d696 9fbe 19c5 4238 5f6e 2c3e 3324 323d
000001a0: 1f45 0a3c b361 e2bb 8122 d53c 2e61 883d
000001b0: 7241 8fbe 4c9b 1b3d 4532 53be 0b79 85bd
000001c0: 5a97 4cbe b60a edbc 9df9 6ebe 444d 35be
000001d0: 7132 35bd 4153 9cbe 072c 243e ea83 2ebd
000001e0: 9fd8 76be a17a a5be e61d 2e3d b1e8 40be
000001f0: 934d b8be d751 8fbe 8b62 8abd f165 30bd
00000200: d3c9 81bd 6e37 0e3d 986e debd f59c 4cbe
00000210: b325 16be b118 d6be 9b78 07be d1c1 8a3e
00000220: 7348 9cbe 5eaf 5cbe d5f8 2c3d 07fd 15be
00000230: a62d 84bd 1f84 5cbe 7aa9 37be bbda 2dbe
00000240: 3578 6cbe 4402 383d 3d02 51be f84b 063d
00000250: ce34 973d 4a56 033e 8b2b 253c 56f0 753d
00000260: 6fdf 483d cca3 023d 8bb5 333d fa6a bdbe
00000270: f593 93bd fc80 2ebe 018b 57bd 1b47 29be
00000280: 0bba 403d 473b 16be bec6 59bd 65ea 78be
00000290: 65e5 423d ac05 09be d0d5 22be 3f55 493d
000002a0: 1939 6a3d 459d 98be 6451 813e c9da 823c
000002b0: 9efb 313e 6366 55be ded4 d0bd 372a acbd
000002c0: ae3f 2fbe 5a23 6abe c156 e43c c17e 84be
000002d0: bc68 b3ba 5947 cebb 7231 dfbd 86f2 45be
000002e0: 1e85 ec3d 27ea 8bbe 1413 7a3c 03df b2bd
000002f0: 0f46 26bd f1f3 80be 10bd 4d3e 9e97 79be
00000300: 61f2 98be 42e4 d2bd 9693 563e dd56 37be
00000310: 1344 d0bd 1cdc e93c ea99 b33c e963 9ebb
00000320: cf34 9cbe bb77 8fbe 6e19 14bd 3f23 1cbd
00000330: a52e 913d ed72 6abd 402c 85be ccf8 cabd
00000340: da7b 00bd 12e9 dfbb 2bfb 993d e56b 45be
00000350: e00a 63be 89d9 383e 78e7 dcbd 1232 383d
00000360: c38a c33c 7cbe 96be 2883 073e 473e f7bb
00000370: 26d7 7c3c 241d 81bd 4f2b a0be 3303 d3bb
00000380: edb9 933d fe29 b8bd 529e ffbd 0e41 be3a
00000390: 2616 93bb 1fe6 76be 7c68 46be a332 efbd
000003a0: 0e59 c53d 57ce d33d 7f8f 313d 2a68 b43d
000003b0: 9e3d 5fbe 3a81 113e 2b76 adbe 5fd3 7a3d
000003c0: 7502 4fbc 8480 e6bd a8fa 7dbd 06e9 83be
000003d0: 8d03 82bc ab98 81bc d4ca ebbd 581e 8abe
000003e0: c069 95bd 4368 42bc f631 c8bd 32e8 acbd
000003f0: 3c51 04bd c223 fdbd 7c31 1e3d 1a3f bebe
-0.096689716 0.086418256 0.14690343 -0.07202681 -0.0653195 0.20012434 0.071759425 0.20477991
0.06695629 -0.11313644 -0.04751379 -0.2638648 -0.07194285 0.06456872 -0.10152126 0.1782825
-0.14795442 0.070900284 0.009277724 -0.11214302 -0.083573 0.005788018 0.011915478 0.15837635
-0.23391242 -0.04527585 -0.0143492995 -0.08170812 -0.35516644 -0.1599323 0.12663008 -0.12753145
0.087443635 0.04922292 -0.21037383 0.108683385 -0.0032195027 -0.06400438 -0.360318 -0.015694767
0.13250364 -0.10833753 -0.34435973 0.032729533 -0.099998266 0.27123553 -0.120676674 0.15416877
0.07710945 -0.23290896 -0.039243232 0.009534729 -0.20898393 -0.037301604 -0.2787917 0.036205716
-0.16842899 -0.19587591 -0.13051365 -0.03334031 0.20166838 -0.06482898 0.07169697 0.018775461
-0.025297597 0.031373966 0.17517114 -0.20609915 0.072973125 -0.13660136 -0.13305865 -0.091015756
-0.093002 0.020715162 -0.17491347 -0.17539671 -0.053997256 0.005910496 -0.058724135 0.11649488
0.090390466 -0.1095393 -0.05076482 -0.021438003 -0.022438366 -0.07566569 -0.084348224 0.13303782
-0.057331216 -0.09357731 -0.12959468 0.050136887 0.047909293 0.17314565 -0.1104367 -0.053267464
-0.117906585 -0.025879188 -0.35237673 0.003655262 -0.31169766 4.6436766e-05 0.16838978 0.043491554
0.008439331 -0.0069086193 0.02601743 0.066591606 -0.27979618 0.0379899 -0.20624645 -0.06517228
-0.19979611 -0.028935771 -0.23337407 -0.17705256 -0.044237558 -0.30532268 0.1603242 -0.04260627
-0.24106072 -0.3232012 0.042508982 -0.18838765 -0.35996684 -0.27992126 -0.06757077 -0.04306597
-0.06337323 0.03472083 -0.10860938 -0.1998175 -0.14662819 -0.41815713 -0.13229601 0.27100995
-0.30524024 -0.21551272 0.042229492 -0.14647304 -0.06454019 -0.21534775 -0.17935744 -0.1697797
-0.2309273 0.044924036 -0.2041101 0.032787293 0.073831186 0.12825885 0.010081182 0.060043655
0.049041208 0.03189449 0.043874305 -0.3699568 -0.07205955 -0.17041391 -0.0526228 -0.16531031
0.047052424 -0.1467105 -0.05316805 -0.24308164 0.04758205 -0.1338107 -0.15901875 0.049153563
0.05718336 -0.29807487 0.2525741 0.015973466 0.1738114 -0.20839839 -0.10196851 -0.08406489
-0.17114136 -0.22865048 0.027873399 -0.25877956 -0.001368783 -0.0062951264 -0.10898103 -0.19330797
0.115488276 -0.27327082 0.015263338 -0.08733942 -0.040594157 -0.25186113 0.20091653 -0.24374244
-0.2987242 -0.10297443 0.20954737 -0.1790423 -0.10169234 0.02854734 0.021923978 -0.0048336876
-0.3050904 -0.28021035 -0.036157064 -0.03811955 0.07088975 -0.057238508 -0.26010323 -0.099107355
-0.031368114 -0.006833204 0.075186096 -0.1927944 -0.22172117 0.18051733 -0.10786337 0.044969626
0.023869878 -0.29442203 0.13233626 -0.007545266 0.015432155 -0.06304386 -0.31283042 -0.0064395904
0.07213197 -0.089923844 -0.12481369 0.0014515237 -0.0044887243 -0.24111222 -0.19375795 -0.1167958
0.096361265 0.103420906 0.04334974 0.0880893 -0.21800849 0.14209452 -0.33879218 0.061236735
-0.012634863 -0.11254981 -0.062006623 -0.2576372 -0.015870834 -0.015819868 -0.11513296 -0.26976275
-0.07295561 -0.011865678 -0.09775154 -0.08442725 -0.032304034 -0.12360336 0.03862141 -0.37157518

fc2.weight f4 [256, 512]
00000000: 6d17 df3e cf09 8fbe 3d64 febe ea7e 0c3e
00000010: 3731 843d a530 73bd 6fb6 11bf 3d89 4cbd
00000020: b9cf 8c3d 4560 ec3d 3194 c0bd 5315 c2be
00000030: ba54 8a3d 5535 b23b 87a8 34be aea4 91be
00000040: 346c 74bd 0bb2 54be aa75 47bd 49f8 79be
00000050: 4601 5c3e af21 86bd 65e4 41be 8c70 0fbe
00000060: 2d3a 18be 9f24 583d d44c 1cbe 41e3 8c3e
00000070: 517c 853e f848 2fbe 8317 753c eb09 43bc
00000080: 120b 03be 253b 46bd 5051 973d 4dca 42bd
00000090: 2fc4 0d3e e791 ee3b 5284 213d 2146 87be
000000a0: d8ec c139 d305 8a3e 3572 2abf 2422 d5be
000000b0: c27b cb3d 1081 c43c 3999 08bd 730d 8d3c
000000c0: 6b66 88be 1836 93bc 303e 54be ea3e 0f3e
000000d0: f1bb 553e b2e8 6c3e 2d5b aabe d177 7bbe
000000e0: 78f1 963e ed25 a63e a02f bb3e 8f37 92bc
000000f0: a5c8 89bd c54f 3d3e f601 2f3e 6bc0 7aba
00000100: 129f 683e 4a1c 1ebe b5e6 353e f03c 4d3e
00000110: c3a8 a8be d9de b13e ffe4 023e b94d 41bd
00000120: 614f 9dbe e413 993e 6171 5a3d 36bf e3bc
00000130: 8deb abbd 60fd 733d 4def 433d 37d2 423d
00000140: c326 8c3e e56b 813e a68a 9abd 3863 2a3e
00000150: 13ac 07bc 8577 d13d 8be5 a53d 00a4 443d
00000160: 0bb8 8f3e 91ab 2a3e 64b7 06be 7a0b e0bc
00000170: 6aab bfbe 4de1 8dbe fca3 61be 731a 253e
00000180: 3c44 96bd cbc1 6e3e 1e3c 2ebe 3821 333e
00000190: 8d7c 293e 137e d5be ed1e cc3d 83c5 fe3d
000001a0: d856 323e ad93 e73d e0bd c53e ee7a a9bd
000001b0: 279f da3d e0b4 623d 9c63 4cbe 92c6 853e
000001c0: 3159 4bbe e57c 223d 0be7 293d 992f 573e
000001d0: ff06 3abe be83 723e 8396 7abe 2f9c 2c3e
000001e0: d289 e0bc 6580 383f 32e7 a43c a07d 823e
000001f0: 17a1 a13d 4e69 cd3d e74f 913e 1d3c af3d
00000200: dd76 523d 7689 88be fdd0 a93d 87c6 3b3e
00000210: 7a98 b93e fb10 ec3e 017d 553d dc53 e13e
00000220: 1f36 a5be 4558 dabc fe55 7cbe da0c bc3c
00000230: 5c02 98be 4d21 b9bd 874d 8bbe ef2f bcbe
00000240: 1a5b 693c fe4f 523d 58dd 243e 6b11 84bc
00000250: d5a5 44be 6ab1 93be ce26 073e ed8f 723e
00000260: ff7f f63c 99a0 663d 32e1 6ebd 35f2 e9bd
00000270: c0c9 a4bd c41e 583e 5d5c 55bd 881f dfbc
00000280: 5104 113e 44b7 bd3d 8001 563e 8224 903e
00000290: fbfe 7e3e cdf7 4dbe 66f1 9fbe 9e7f ffbd
000002a0: a80c 133e 05ce a1be 0614 60bd 5ae4 86be
000002b0: 7589 463c 636e a7be 0ce3 353d 0016 8dbd
000002c0: 0b21 53be 52b5 0f3d 36c5 8cbe 89ce cabc
000002d0: a32f 91bd 8f4c 19bd 057a b2bc 30b2 003e
000002e0: 6c2e 363e 1cdb 9bbe 469e 94be 61f8 a83d
000002f0: 44ab 7bbe 57a6 033d 356d edbd d772 883e
00000300: 260e 5dbe 7a09 c23d 8629 883d 7165 99be
00000310: b0c3 433e c36c f8bd 4077 2abd f760 c93e
00000320: c6b6 20be 2a09 b3be 28ed c03e bf01 463e
00000330: e610 183e 11fc 163e 2031 933c a8fb 3e3e
00000340: 2445 a93c 12a5 90be 7113 363e 8911 013b
00000350: 3569 1c3e 54bf 85bd 4ed3 56bd 844e 103d
00000360: d15a 2b3e 5102 b03e 71f0 cc3d 13a1 323e
00000370: 2d42 67be 3720 3cbe b9b6 013e 8c94 7bbd
00000380: af5b 943d 2bac 2fbc fbf7 b73c 9192 ea3d
00000390: 87e8 403e 144c bbbd bc9b 8e3e 59ee 943d
000003a0: 7dae e7be c35b 523e 63bf 8c3d d302 893e
000003b0: 3529 163e 3709 48be be3c 343e 5f35 db3d
000003c0: 474f f43e 4651 5e3d bd88 45bd c319 5dbe
000003d0: 36a3 bdbe ceb9 873a 2a1b 7a3d b89f 5cbe
000003e0: 7984 a6be 5582 e5bc 8c0a e5bd af16 64bd
000003f0: 2cb0 2dbe 929b d23e d413 8a3d d72d c43b
0.4357256 -0.2793717 -0.4968585 0.13720289 0.064546995 -0.059372563 -0.56918997 -0.049935568
0.068755575 0.115417995 -0.09403265 -0.37906894 0.067544416 0.0054384866 -0.17642413 -0.28445953
-0.059673503 -0.20771043 -0.048696198 -0.2441112 0.21484861 -0.065493934 -0.18934782 -0.14007777
-0.14865942 0.0527693 -0.15263683 0.2751713 0.26071408 -0.17117679 0.014959219 -0.01190422
-0.12797192 -0.04839625 0.07388556 -0.04755621 0.1384437 0.0072805765 0.03943283 -0.26420692
0.0003698829 0.2695757 -0.66580516 -0.4162761 0.09935714 0.023987323 -0.03334925 0.017218327
-0.2664064 -0.01797013 -0.20726848 0.13988844 0.20872475 0.23135641 -0.33272687 -0.24557425
0.294811 0.3245081 0.36559772 -0.017848758 -0.06727723 0.18487461 0.17090592 -0.00095654157
0.2271693 -0.15440479 0.17763789 0.20042777 -0.32941255 0.34740332 0.12782668 -0.047193263
-0.30724624 0.29897988 0.053330783 -0.027801137 -0.08394537 0.05956781 0.047835637 0.047563758
0.27373323 0.2527763 -0.07545976 0.16639411 -0.008280772 0.10227875 0.081004225 0.048007965
0.280701 0.1666701 -0.13155895 -0.027349222 -0.37435466 -0.27710953 -0.22035211 0.16123371
-0.073372334 0.23316114 -0.1701512 0.1749314 0.16551419 -0.4169775 0.09966836 0.12440016
0.17415941 0.11307464 0.38621426 -0.082754 0.10674887 0.055348277 -0.19959873 0.2612806
-0.19858243 0.03966989 0.041480105 0.21014251 -0.18166731 0.23683068 -0.24471478 0.16856454
-0.027409468 0.72070915 0.020129774 0.2548647 0.078920536 0.10029851 0.28381273 0.085563876
0.051382888 -0.26667374 0.082918145 0.18337451 0.36249143 0.46106705 0.052121166 0.44009292
-0.32267854 -0.026653418 -0.24642178 0.022955347 -0.296893 -0.09039555 -0.27207586 -0.3675532
0.014242912 0.051345818 0.16100061 -0.016121587 -0.19203885 -0.28846294 0.13198397 0.23687716
0.03009033 0.0563055 -0.05832023 -0.114231504 -0.08046293 0.21105486 -0.052090038 -0.027236715
0.14161803 0.09263471 0.2089901 0.28152853 0.24901955 -0.2011406 -0.3123886 -0.12475513
0.14360297 -0.31602493 -0.054706596 -0.26346093 0.012117733 -0.32701406 0.044405982 -0.06888962
-0.20618074 0.03508503 -0.2749421 -0.024756687 -0.07089164 -0.037426528 -0.0217867 0.12567973
0.17791146 -0.30440605 -0.29027003 0.082504995 -0.24577051 0.032141056 -0.11593095 0.26650116
-0.21587428 0.09474464 0.06648545 -0.29960206 0.19117618 -0.1213012 -0.041617632 0.3933179
-0.15694723 -0.3496793 0.37680936 0.19336604 0.14850196 0.14744593 0.01796776 0.18650687
0.020662852 -0.2825094 0.17780854 0.001969429 0.15274508 -0.065306336 -0.05244761 0.03523113
0.16733862 0.34376767 0.10006798 0.17444257 -0.22583838 -0.18371664 0.1266736 -0.061420962
0.0724405 -0.0107222 0.022457113 0.114537366 0.18838702 -0.0914537 0.2785319 0.07272024
-0.45250311 0.20542817 0.068724416 0.26759967 0.14664157 -0.19534765 0.17601296 0.10703539
0.47716734 0.054276727 -0.048226107 -0.21591859 -0.37038583 0.0010355057 0.061061062 -0.21545303
-0.32522944 -0.028016249 -0.11183652 -0.055685695 -0.16961735 0.41134316 0.06742063 0.00598691

fc2.bias f4 [256]
00000000: 328e 18be f790 53be 2642 933d 20bb e23d
00000010: 7685 673d 1323 68be b274 503d cd25 2cbd
00000020: a5af 9b3d e007 16be af96 edbd 02dc be3d
00000030: 3d98 97bd a291 213d 95e7 093d ba95 a8be
00000040: 76fd 6a3d be7d 733b 5c0f f1bd 4675 abb8
00000050: 5c9a 80bd 2fed 9d3d b4f5 13be f2aa 113d
00000060: 939d 0c3d 9b1b 693c 94e8 95bc 41db 963c
00000070: 83ca 99be 0ec2 583c 3cab 693d 416b 9fbd
00000080: 224d c2bc 3d28 08bd 6e0d a03e 4549 48bd
00000090: b60e 87bd c216 9b3d 487f 9e3d eb69 e0bd
000000a0: a66c 56bd 0fe5 183e d2d6 233e 9ee7 de3d
000000b0: ca94 74bd eabb b03c 6cb7 b1bc 31a9 58bd
000000c0: 688a 3fbc f217 173d 5944 303e 387c 093b
000000d0: a2dc bc3d c765 253e 3fd1 393e 7974 35be
000000e0: 67f8 bcbd 759a 90bc 362f 46bd 7d44 9d3e
000000f0: 5eee 8abb bec6 fd3d 0776 96bd 2e2c b33d
00000100: 5161 87bb cfe2 373d d709 bdbd 4f69 fcbd
00000110: 9833 823c 0bf2 303d d43b 24be 9361 59bd
00000120: edfd 183e 142a a5bd db27 0e3d 9bcd 8dbe
00000130: 2dc2 a5bc a244 c7bd fd4d 253c 07cd 96bd
00000140: f9f7 27bc 5278 28be 5b5c 423b b208 013e
00000150: 53eb 6abd c260 b63d f0f6 573e 77a5 e8bd
00000160: a7ac 923d cb25 aa3d 5038 043e 2fac 653d
00000170: e612 d3bd 6dfc c43d cf98 e93d 5aca 1c3e
00000180: d1ac a43c 2e3d 97bb cb5f 5a3d 8648 913d
00000190: e31a 48be 8683 0dbe 55f0 85be b52c 3bbe
000001a0: a3ea 2f3e 70f2 9039 2ce9 0a3c 7d4e 4f3d
000001b0: e9a5 153e e5ea d13d 262b 1a3a a102 113c
000001c0: 09be 453d 1e1b 8bbd 6b2e cf3d 8aaf 2f3d
000001d0: 99aa ed3d f34b 2dbc 98ea 153e 4653 a03e
000001e0: b044 be3d 7153 6b3b b3f9 9a3d 4318 26bd
000001f0: 2e50 553d 88e5 f73d 77f6 cb3d b0c1 bdbd
00000200: 801a 1d3d db86 51bd 440b f83b b38e 5e3e
00000210: b88e acbd d677 213e 91f7 f13b 3b28 14be
00000220: 3415 253e 07e4 5d3e d582 b7bc 21d4 8b3b
00000230: 7042 3cbd 3832 a63d 652c 3c3e ee52 91bb
00000240: 1452 b5bd 6bdd f23a 538c 8ebc 1288 353e
00000250: 9a63 bb3d 14d2 3bbe 6581 2a3b 6c9f b7bd
00000260: 7b99 a83d 8e2d 24bd c607 573d 105e 3e3e
00000270: b8ae 1c3e 4991 2cbe 9fc0 8f3c 0a3a 143e
00000280: 5fd8 60bd 456e 4dbe 3963 943c 2b76 eabd
00000290: 586c 2c3d 1e53 20be 117d 0c3c 5f27 a2bd
000002a0: f911 d23d 58fc aa3d f9cb 86bd c960 35bd
000002b0: d1b1 9b3d 65cf 18be 8143 8f3d 2832 903c
000002c0: afba 5e3d b170 9bbd 4c03 4c3e 2e06 1fbe
000002d0: f1c6 943d 657a 17be 1987 d13d 97e4 483e
000002e0: a40e aebd 0f1a f03c 0c46 22be 1472 15be
000002f0: 7f86 dbbd 9b9e 563e 7b4b ff3c 2d29 15b9
00000300: 9cef f83b 3814 183d fc6d 943d ea95 58be
00000310: 1ca1 62be d275 523e ce33 fc3d 1821 57bd
00000320: 2b28 81bd 2b48 093e 6313 c83d e9a9 64bd
00000330: 7ac0 ac3d 3b08 b9bd 64f6 4c3e db63 8a3d
00000340: 6981 b5bb 64b0 5ebe 15c0 4c3e b806 4abd
00000350: 4f70 b1bd 22f8 a0bd ed9e 5cbe 393d 91bc
00000360: a7b9 2e3d 1538 c3bd debc 3c3d 3cfc 263e
00000370: 0318 18be 27d5 5f3d 1a1c a23d f2ac 16bc
00000380: 9168 ab3e 8fea 983d d488 933b c833 0e3d
00000390: 905f 57bd b895 7a3d 33ef 003d 49c7 6f3d
000003a0: 77aa 0b3b 020d 463d e1a3 d1bd 79e0 a63d
000003b0: 051e 4e3e c3fe 33be ba14 99be ddf3 503c
000003c0: 0d01 113d af98 6c3d 284b d038 b3de 4cbe
000003d0: 4b45 9a3d 7f75 843d 5ced ad3d 6cca 543e
000003e0: b661 a0bd 46c7 fcbd f360 643d f10e 13be
000003f0: e923 b73d eead 273c 3c97 5c3e b46c 41bd
-0.14897993 -0.20660768 0.07190351 0.110708475 0.056523763 -0.2266963 0.05089254 -0.042028237
0.07601861 -0.14651442 -0.11601006 0.09319307 -0.07402084 0.039445527 0.03366812 -0.32926732
0.057370625 0.0037153806 -0.11770508 -8.175759e-05 -0.06279442 0.07711255 -0.14449197 0.035563417
0.034329962 0.014227773 -0.018299378 0.018415095 -0.30037317 0.01322986 0.057048067 -0.07784129
-0.02371842 -0.0332415 0.31260246 -0.048898 -0.06594603 0.075727 0.07739121 -0.10957702
-0.05234971 0.14931129 0.15999916 0.10884021 -0.05971221 0.02157398 -0.021693908 -0.05289573
-0.011690713 0.03688807 0.17213573 0.002097858 0.0922177 0.16152106 0.18146227 -0.17720212
-0.092270665 -0.017651776 -0.048384868 0.30716315 -0.0042398414 0.12391423 -0.07346731 0.08748661
-0.004131474 0.044894036 -0.092303924 -0.123247735 0.015893742 0.04319958 -0.16038448 -0.05307157
0.14940615 -0.080646664 0.034705978 -0.27695927 -0.020234192 -0.097298875 0.010089395 -0.073633246
-0.010251992 -0.16452149 0.00296571 0.12600973 -0.05735333 0.08905174 0.21090293 -0.11359685
0.07161837 0.0830799 0.12912107 0.05607241 -0.10306339 0.09618459 0.11406099 0.15311566
0.020101937 -0.0046154475 0.05331401 0.07093911 -0.19541506 -0.13819703 -0.2615992 -0.18278773
0.1717935 0.0002764645 0.008478444 0.05061196 0.14614071 0.10249881 0.00058810634 0.008850724
0.048276935 -0.067922816 0.101162754 0.042892016 0.116048045 -0.01057719 0.14640272 0.31313533
0.09290445 0.003590789 0.075671576 -0.04055048 0.05207842 0.121043265 0.09959119 -0.092654586
0.03835535 -0.051154 0.0075697023 0.21734123 -0.08425659 0.1576837 0.0073842485 -0.14468472
0.1612137 0.21669017 -0.022401253 0.004267231 -0.045961797 0.08115047 0.1837631 -0.004434935
-0.08853546 0.0018529122 -0.017400896 0.17727688 0.09149857 -0.18341857 0.0026017067 -0.08965954
0.08232399 -0.040082507 0.052497648 0.1859057 0.15301025 -0.16852297 0.017547904 0.14475265
-0.054893848 -0.20061596 0.01811372 -0.1144832 0.042095512 -0.15656707 0.00857474 -0.07917666
0.10257334 0.08348912 -0.065818734 -0.044281755 0.07602275 -0.14922865 0.06995297 0.017602041
0.054377254 -0.075898536 0.19923133 -0.15529701 0.072645076 -0.14792784 0.10230846 0.1961845
-0.08498886 0.0293093 -0.15847033 -0.14594299 -0.107190125 0.2095894 0.031163922 -0.00014225086
0.007596923 0.037128657 0.0724754 -0.21150938 -0.22131771 0.20552757 0.123145685 -0.052521795
-0.063064896 0.13406436 0.09769323 -0.0558261 0.084351495 -0.09034773 0.20015866 0.06757327
-0.0055391085 -0.21746975 0.19995148 -0.049322814 -0.08663999 -0.078598276 -0.21545 -0.017729389
0.04265752 -0.09532181 0.046078555 0.16307157 -0.1485291 0.054646637 0.07915516 -0.009196507
0.33478215 0.074666135 0.004502395 0.03471735 -0.05258137 0.06117794 0.03147812 0.058539663
0.0021311322 0.04835225 -0.102363355 0.081482835 0.20128639 -0.17577653 -0.29898626 0.012753454
0.035401393 0.057762798 9.932212e-05 -0.20006828 0.07532748 0.06467723 0.08492538 0.20780343
-0.07831137 -0.12342696 0.05575652 -0.14361168 0.08942396 0.010234339 0.21542066 -0.047222808

fc3.weight f4 [4, 256]
00000000: 208b dc3d c963 0abf 1019 bf3e fbb3 9c3e
00000010: 921a c53b 9e89 7cbf 502f af3e b78f 7a3e
00000020: 8282 c53d a087 063e e4ac c8bf 4bac a73e
00000030: 3214 6c3e c3e6 7dbe b42e 5b3e b750 3dbf
00000040: e247 e13e e097 ca3e 5619 3cbf 62a8 51bf
00000050: e277 8d3e 7e48 cbbe e252 7dbe 888b aa3d
00000060: 368d a4be cfdb 7e3c d5fb 0c3f 4bb3 bd3c
00000070: f25c 62bf 0aff 25bf 980b 4cbe f3f9 14be
00000080: d43b 58bf 039f f7bf f3cd 513f e3dd 8c3e
00000090: decd 873e 0e37 1e3f f3ce a53e 3cd7 21bf
000000a0: ceeb b7bf d979 913e f701 163f f3b7 ac3e
000000b0: 2393 9ebf 3d0b ce3e 4f28 8b3e bd95 1bbf
000000c0: a863 eabe 69cb b23d 3243 6c3f 96e5 093e
000000d0: 687d 62be fc93 30bf 97d5 913e 07a8 c4bf
000000e0: 0c81 7ebf 83ba 18bf 6ad5 ffbe d66a 663f
000000f0: fb77 5dbd 0b96 2bbc ab72 b53e 64c8 e5bd
00000100: 90d3 623e 16a8 c6bb 4058 02bf 4883 9cbf
00000110: 92ac 5ebe 0d21 2c3f 8ab3 6ebf ee2c e73e
00000120: 10a2 07bf 5174 7fbf ca99 f73e f635 b8bf
00000130: f460 893f 9e90 64bf 8eb8 f73e 3b6e c9be
00000140: f3c9 163f 4d59 b83e 09b2 28bf 8189 d03e
00000150: a23d 443e bd36 24bf 0fad 373f 5c5b 5fbf
00000160: 4fa2 f93e 1610 d5be 15e6 163f c360 373f
00000170: 32dd 0d3f debb 78bf eeb6 583f d4ce b13e
00000180: 7374 f6bf 76f2 08bf 3037 6abf ab0e d73e
00000190: fcc4 08bf cedf 24be aa27 98bf 972c d03e
000001a0: 0dee 413e 0f95 0abf 5dfa 2dbd 6f60 23bf
000001b0: b6c0 213f cdc8 363e d4cb 673f 6712 433e
000001c0: 300f 4a3e a34d 393f a268 a73f 4927 4cbf
000001d0: 8bcf 2abe 4dfa 8c3d 9366 5cbe b97a 2f3f
000001e0: 798a 42bf 5c07 57be 81c2 cdbe e50a e7be
000001f0: 95b1 063f ec62 11bf 69fd 253d 0faa 35be
00000200: 01a5 b0bf bb1b c7bd a87e 49be 53f1 1b3f
00000210: d081 b3be 3cb3 833f d82e 763f 1b11 d3bf
00000220: 0b9a 843f fa12 173f aec8 dc3e 28fb 543f
00000230: e8ee d73e 7350 0d3f bad3 553e aaad 9d3f
00000240: f4b7 2e3f e69f 96bd c082 dbbd bd19 263f
00000250: 2c04 943e b666 c63f e10e f63d 81cd 5a3f
00000260: 0bb1 e13d d2ea c63d 18b5 9dbf 3d6d 2abe
00000270: abd5 c23e 438d c33e 12c7 e7bd 9a76 57bf
00000280: 07e9 943f 4bd1 d63e a848 273e b041 c5bf
00000290: 5174 9fbf 8ad8 b2bf b6b0 a3be efce 94bc
000002a0: 702a ff3e c6dd 29be 4d78 22bf 9f33 2abe
000002b0: 8dd8 81be 3faa 80bf f22a d33e 74c5 613f
000002c0: ed3c d93e f966 60bf 4a91 d63e fb38 fbbe
000002d0: 6717 493f da82 6cbf 4ed5 bc3d f381 0c3f
000002e0: 4d40 c5bd d846 e2bf 458f 2bbf 2cc9 0d3d
000002f0: 2556 123e 6ebb 5d3f 191f e7bf 40b1 fabe
00000300: 64a2 adbf 006f 663f 004a a2bf 3e6a 9bbf
00000310: b1f8 b43e 826c 0e3f a357 1c3f 9960 77be
00000320: 0d30 67bf ac59 f03e cc61 1cbd 23ab 5fbf
00000330: 8a0f c4be 400f d6bf d18f cd3e 1ff9 443f
00000340: 0d86 aa3f 515c d1bf a667 5b3f ce7d a23e
00000350: 7305 8cbf 9859 ca3f bcba babf b8b6 06be
00000360: db7d 023f 888a a1bf 96a9 84bf 645c efbe
00000370: 8085 7abf 679e 403e e9dc 9d3e f980 83bf
00000380: 5cd5 963f 7d68 29bd cfe7 f1bd 68cc 4cbf
00000390: 5030 083e aa6a 28be 6aa2 9abe 92bf b43e
000003a0: 2e38 c2be 6697 54bf 8b50 c8bf c05f 1b3e
000003b0: 8b64 b53d e688 23bf 04e8 27bf 7db5 e93e
000003c0: da2f c3bd f6b2 a53e 93d3 453f 5029 f6be
000003d0: 073b 903f baa5 c53d 8952 10bf c238 c13e
000003e0: 7b6a e63e ea20 073d eb07 353f 094a 07c0
000003f0: 5845 8cbe 3eb7 11bd 9477 48bf 959b 92be
0.107687235 -0.5405851 0.3732381 0.30606064 0.0060151303 -0.9864749 0.34215784 0.24468885
0.09644033 0.13137674 -1.5677762 0.32748637 0.23054579 -0.2479506 0.21404535 -0.73951286
0.44000155 0.39568996 -0.7347616 -0.81897557 0.27630526 -0.39703745 -0.24738649 0.08327395
-0.32138985 0.015555336 0.55071765 0.023156783 -0.88423073 -0.64842284 -0.19926298 -0.14548473
-0.8446629 -1.9345402 0.8195488 0.27513036 0.26524252 0.61802757 0.32384452 -0.63219047
-1.4368837 0.28413275 0.5859675 0.33734092 -1.2388653 0.4024295 0.2717919 -0.6077536
-0.45779157 0.08730204 0.9229003 0.13466486 -0.22118151 -0.68975806 0.2848327 -1.5363778
-0.9941566 -0.59659594 -0.4996751 0.9000677 -0.0540695 -0.010472785 0.35439047 -0.11219862
0.22151017 -0.006062518 -0.5091591 -1.2227564 -0.21745518 0.6723793 -0.93242705 0.45151466
-0.5298166 -0.9978686 0.4835952 -1.4391468 1.0732713 -0.8928317 0.48382992 -0.39341912
0.589019 0.3600563 -0.6589666 0.40729907 0.19164136 -0.64146024 0.7174844 -0.8724878
0.48756644 -0.41613835 0.5894483 0.7163202 0.5541564 -0.9716166 0.8465413 0.3472811
-1.9254287 -0.53494966 -0.9149046 0.42003378 -0.53425574 -0.16101 -1.1887105 0.4065902
0.18938465 -0.54133695 -0.042475093 -0.6381902 0.6318468 0.17850037 0.9054539 0.19049989
0.19732356 0.7238409 1.3078806 -0.79747444 -0.16680734 0.068836786 -0.21523504 0.68546635
-0.7599254 -0.20998901 -0.40187457 -0.451255 0.5261472 -0.5679157 0.040524874 -0.17740653
-1.3800355 -0.09722086 -0.19677222 0.60915107 -0.35059977 1.0289073 0.9616523 -1.6489595
1.035951 0.5901333 0.43121856 0.83195734 0.42174459 0.5520088 0.20881549 1.2318623
0.6824944 -0.07354717 -0.10718298 0.64883024 0.28909433 1.5500095 0.12014557 0.85469824
0.110200964 0.09712757 -1.232089 -0.16643234 0.3805364 0.38193712 -0.113172665 -0.84165347
1.1633614 0.41956553 0.1633631 -1.5410671 -1.2457372 -1.3972332 -0.31970757 -0.01816508
0.49837065 -0.16588506 -0.63464814 -0.16621254 -0.25360528 -1.0051955 0.41243702 0.88191915
0.42429295 -0.87657124 0.41907722 -0.4906691 0.78551334 -0.92387164 0.09220372 0.54885787
-0.09631405 -1.767787 -0.67015487 0.03461568 0.14290674 0.8661412 -1.8056365 -0.48963356
-1.3565183 0.9001312 -1.2678833 -1.2141798 0.35345986 0.5563432 0.61071223 -0.24157943
-0.90307695 0.46943414 -0.038179204 -0.8737051 -0.38293105 -1.6723404 0.40148786 0.7694263
1.3322159 -1.6356298 0.8570503 0.31736606 -1.0939163 1.5808592 -1.4588237 -0.13155639
0.5097329 -1.2620401 -1.0364254 -0.46750176 -0.97859955 0.18810426 0.30832604 -1.0273734
1.1783862 -0.041359413 -0.11811792 -0.799994 0.1329968 -0.16446939 -0.30202037 0.35302407
-0.37933487 -0.83043516 -1.564958 0.15173244 0.08857068 -0.63880765 -0.655884 0.45646277
-0.09530611 0.323631 0.7727596 -0.48078394 1.1268014 0.096507505 -0.5637594 0.37738615
0.45003113 0.032990374 0.70715207 -2.1138937 -0.27396655 -0.035575144 -0.7830746 -0.28634325

fc3.bias f4 [4]
00000000: c16b c53e 2814 2dbd 0967 eabd 3946 163e
0.38558772 -0.04225555 -0.11445434 0.14675225
