multiple_agents/checkpoint_critic.pth (torch_old, 602210 bytes, 9 tensors)

normalizer.weight f4 [33]
0.3088408 0.20398809 0.3112022 0.08219906 0.03646888 0.047967985 0.041080963 0.012164299
0.040109362 0.043100726 0.080429904 0.0684286 -0.085911684 0.4579948 0.25255364 0.53320223
0.025594385 0.051345322 0.025857918 0.039885964 0.042848278 0.031079335 0.026277702 0.24046978
0.15111081 0.23185548 0.53411084 0.03616482 0.49419335 0.37341738 0.30510002 0.9320004
1.5618474
00000000: 6220 9e3e 41e2 503e e555 9f3e fb57 a83d
00000010: 6460 153d 147a 443d 8344 283d c54c 473c
00000020: b749 243d 638a 303d 6fb8 a43d 4b24 8c3d
00000030: 77f2 afbd 4b7e ea3e b64e 813e f17f 083f
00000040: 51ab d13c 794f 523d fcd3 d33c 775f 233d
00000050: ad81 2f3d 179a fe3c 5644 d73c b63d 763e
00000060: cbbc 1a3e 866b 6d3e 7dbb 083f 9021 143d
00000070: e906 fd3e 9030 bf3e 1236 9c3e 9497 6e3f
00000080: 9eea c73f

normalizer.bias f4 [33]
0.0112738535 -0.11466129 0.046414766 0.0036606016 0.0036346598 0.00046239913 0.00022589388 -0.0073339366
-0.006489918 -0.003735523 -0.0014876918 -0.03218213 -0.015042984 0.14208528 -0.039118942 0.09723787
-0.0025657825 -0.005214563 -0.0029570225 0.002196919 0.0062654787 -0.010772028 0.0044915983 0.038761865
0.0032278914 -0.024447558 -0.08265744 0.00018514686 0.15063576 -0.0017711226 0.17000738 1.5469455e-05
-0.02262338
00000000: f8b5 383c 8ad3 eabd 691d 3e3d b4e6 6f3b
00000010: 7933 6e3b 296e f239 eddd 6c39 8551 f0bb
00000020: 61a9 d4bb adcf 74bb a7fe c2ba 69d1 03bd
00000030: d976 76bc ce7e 113e 2f3b 20bd a624 c73d
00000040: b026 28bb edde aabb 9bca 41bb 2ffa 0f3b
00000050: a54e cd3b 297d 30bc 422e 933b c3c4 1e3d
00000060: 088b 533b 3f46 c8bc 4e48 a9bd fb23 4239
00000070: 4340 1a3e 0325 e8ba 6a16 2e3e 67c4 8137
00000080: ab54 b9bc

normalizer.running_mean f4 [33]
1.3593448 -2.087697 -0.90432286 0.73595774 0.14651214 -0.0057540694 -0.116363935 -0.011617193
0.018460352 0.007264493 0.022856437 -0.018987585 0.0029436108 1.4474593 -2.9052866 -0.4850002
-0.0460078 0.026071558 -0.038995832 -0.09247947 0.20366663 -0.032844596 0.01371965 -0.013697945
0.0719843 0.013495068 -0.014625752 -0.99999976 -0.053315446 0.0 0.99999976 0.0
0.015223758
00000000: 03ff ad3f d49c 05c0 b481 67bf ba67 3c3f
00000010: 4707 163e a28c bcbb 3750 eebd 0a56 3ebc
00000020: 2a3a 973c fc0a ee3b 6c3d bb3c da8b 9bbc
00000030: 98e9 403b 5946 b93f 37f0 39c0 f251 f8be
00000040: ad72 3cbd 0594 d53c 18ba 1fbd e065 bdbd
00000050: fc8d 503e 0e88 06bd 62c8 603c 586d 60bc
00000060: 816c 933d 6b1a 5d3c daa0 6fbc fcff 7fbf
00000070: 4c61 5abd 0000 0000 fcff 7f3f 0000 0000
00000080: 126d 793c

normalizer.running_var f4 [33]
3.3004284 1.1822419 4.5719604 0.13650382 0.06939011 0.084069625 0.13345435 0.56754315
0.06916381 0.10115255 1.9925891 2.1659641 2.910627 16.056974 2.525074 20.721653
0.19879426 0.27443805 0.1719992 0.34256548 3.6882312 0.55942285 1.5033495 7.0613155
3.7497313 9.472088 31.580666 6e-45 32.398617 6e-45 6e-45 6e-45
0.32660568
00000000: 383a 5340 b453 973f 804d 9240 a8c7 0b3e
00000010: 671c 8e3d b22c ac3d 42a8 083e 824a 113f
00000020: c1a5 8d3d 1129 cf3d 290d ff3f 289f 0a40
00000030: b647 3a40 af74 8041 d09a 2140 f2c5 a541
00000040: b990 4b3e 2583 8c3e 8f20 303e be64 af3e
00000050: fb0b 6c40 5636 0f3f c26d c03f 4cf6 e140
00000060: 99fb 6f40 ac8d 1741 34a5 fc41 0400 0000
00000070: 2f98 0142 0400 0000 0400 0000 0400 0000
00000080: dc38 a73e

fcs1.weight f4 [512, 33]
-0.34375423 -0.057735443 -0.2173941 -0.1945095 -0.02467683 -0.15803182 -0.31315154 0.27955243
0.023285812 -0.52279234 -0.7388798 -0.90273577 -0.249568 -0.2285175 0.021370515 0.4232289
0.11613171 0.0019880177 -0.021024667 0.12206844 -0.29781544 0.14063753 -0.8975627 0.07454449
-0.09618698 0.26325193 -0.21028836 -0.15159035 -0.20820835 -0.12780356 -0.6342318 -0.009391343
-0.24738544 -0.32515574 -0.3874895 0.12174021 0.16984645 -0.42951432 0.44138724 0.12533484
-0.0024769339 0.53839886 -0.32034135 -0.63229173 -0.15475696 0.9580149 0.2390359 -0.1185397
-0.27702618 -0.032951884 0.19324733 -0.27914217 0.42699233 -0.23517479 0.9482471 -0.4049717
0.33778456 -0.0157416 -0.34892926 0.059128817 -0.020338824 0.21553251 -0.0015625012 -0.32437366
0.16974446 0.16530736 0.109734766 -0.97091925 0.4545051 -0.15109804 0.062956244 0.240675
0.015475585 -0.2179704 -0.53888863 0.009872304 -0.22395605 -0.16857201 -0.44172972 -0.15974998
1.0769895 -0.32533064 -0.029665813 0.008697988 -0.27713528 -0.07555812 0.23312525 -0.12031455
-0.32279143 -0.0010009642 0.36147964 -0.09064572 -0.32429913 -0.037254523 0.0052805473 0.06507729
-0.25138307 -0.047293283 -0.068331115 0.4045679 -0.5595919 0.20538704 -0.35932136 0.21877165
-0.19994374 0.3331953 0.24805315 -0.18321623 -0.01853196 0.048356615 -0.5485189 -0.004847504
-0.09898641 -0.15020414 0.08112339 0.11635276 0.12877361 0.7938821 0.16351548 0.1717158
1.1563599 -1.2264888 -0.48646027 0.29107246 -0.12028832 0.24088885 0.07132856 0.061663963
-0.04870387 -0.5454153 -0.04688005 -0.037563678 -0.22171876 -0.32676446 0.08534999 0.061784476
-0.15918455 0.28252923 0.33124414 -0.18815023 0.13656086 -0.692468 -0.2865377 -0.8533471
0.13591938 0.124222904 0.07924783 -0.05823862 0.47854862 -0.5135029 -0.5170838 -0.07365001
-0.52740496 -0.7327605 0.065235674 -0.68053097 0.33181554 -0.37090197 0.04402341 -3.29311e-05
0.01892532 -0.07324475 -0.29654148 -0.016950672 -0.24918042 0.20729896 -0.3163539 -0.93590117
0.023180516 0.090238586 0.0682188 0.05208646 0.43821162 0.12158702 0.33577627 -0.3058432
-0.42322564 0.49725944 -0.21952692 0.21496105 0.7517925 -0.04221805 -0.017495206 -0.0682247
-0.08371726 -0.1156053 0.09108104 -0.4229565 -0.25114095 0.58113843 0.28320885 -0.032013953
0.0011277033 0.23418789 0.021049205 -0.008295415 0.00060729566 0.0219183 0.37221032 0.11256109
-0.07659214 -0.07013671 -0.3155389 -0.15087646 0.35226446 0.32194543 -0.6104447 0.26230627
0.3706861 -0.26991776 0.43792677 -0.3314976 0.10527017 0.5442258 0.024158224 -0.11669665
0.009789911 0.06913436 -0.28499886 0.07916863 -0.34723243 -0.15721302 -0.0937179 0.77072227
0.2134283 0.05500969 -0.6260887 0.036704626 -0.17806485 0.07260231 0.14225519 0.522605
0.4180103 -0.3369673 -0.06925344 0.151226 0.13979611 -0.036395073 0.34037906 0.5534039
-0.29093158 0.12413299 -0.24377634 0.3409992 -0.94210786 -0.74609137 0.3484368 -0.37314314
-0.019215854 -0.35538286 0.1103937 -0.18815522 -0.008379719 0.32812813 -0.5872808 -0.21727982
00000000: 8e00 b0be 007c 6cbd 8f9c 5ebe 802d 47be
00000010: 1027 cabc 18d3 21be 6655 a0be 7f21 8f3e
00000020: e3c1 be3c b8d5 05bf 3a27 3dbf b119 67bf
00000030: c18e 7fbe 7e00 6abe 3811 af3c 75b1 d83e
00000040: 76d6 ed3d 6749 023b ec3b acbc 05ff f93d
00000050: 447b 98be 4903 103e abc6 65bf c8aa 983d
00000060: aefd c4bd f5c8 863e d555 57be 803a 1bbe
00000070: 9234 55be f0de 02be 045d 22bf 26de 19bc
00000080: 9c52 7dbe d07a a6be 0665 c6be ee52 f93d
00000090: 3aec 2d3e 4de9 dbbe 82fd e13e c757 003e
000000a0: 0e54 22bb 82d4 093f c803 a4be dfdd 21bf
000000b0: 9c78 1ebe 7740 753f d4c5 743e f1c4 f2bd
000000c0: 60d6 8dbe 8ef8 06bd a1e2 453e b9eb 8ebe
000000d0: bd9e da3e a9d1 70be 52c0 723f 7358 cfbe
000000e0: 19f2 ac3e 87f4 80bc dba6 b2be 0f31 723d
000000f0: 9b9d a6bc 8eb4 5c3e d7cc ccba 4e14 a6be
00000100: 7ed1 2d3e 5546 293e 9fbc e03d 2a8e 78bf
00000110: e4b4 e83e 72b9 1abe 34ef 803d 8273 763e
00000120: 4f8d 7d3c a233 5fbe 9bf4 09bf 72bf 213c
00000130: bc54 65be 249e 2cbe 662a e2be 8095 23be
00000140: cbda 893f bd91 a6be b805 f3bc 0282 0e3c
00000150: ade4 8dbe 37be 9abd 63b8 6e3e 7a67 f6bd
00000160: eb44 a5be c932 83ba dc13 b93e 77a4 b9bd
00000170: 890a a6be 3398 18bd 7108 ad3b 3e47 853d
00000180: 48b5 80be 9ab6 41bd 2ff1 8bbd 8623 cf3e
00000190: 6a41 0fbf fb50 523e f8f8 b7be ad05 603e
000001a0: 0dbe 4cbe 9398 aa3e a501 7e3e 099d 3bbe
000001b0: 56d0 97bc 9611 463d bc6b 0cbf d0d7 9ebb
000001c0: 63b9 cabd 1dcf 19be 0524 a63d 5b4a ee3d
000001d0: 3bdd 033e db3b 4b3f 9a70 273e 44d6 2f3e
000001e0: 9a03 943f 96fd 9cbf 5211 f9be 7307 953e
000001f0: b959 f6bd 91ab 763e b514 923d 5a93 7c3d
00000200: b67d 47bd 56a0 0bbf 4c05 40bd 5fdc 19bd
00000210: 3e0a 63be ac4d a7be facb ae3d b811 7d3d
00000220: 4601 23be aca7 903e d598 a93e 74aa 40be
00000230: 9cd6 0b3e 9545 31bf 12b5 92be f574 5abf
00000240: 732e 0b3e 9468 fe3d b04c a23d 9f8b 6ebd
00000250: 5304 f53e ed74 03bf 9b5f 04bf d1d5 96bd
00000260: 0304 07bf 3196 3bbf 489a 853d 4737 2ebf
00000270: bae3 a93e dde6 bdbe e451 343d 801f 0ab8
00000280: 4609 9b3c 5801 96bd 49d4 97be 23dc 8abc
00000290: 2729 7fbe 2e46 543e 23f9 a1be 3897 6fbf
000002a0: 11e5 bd3c 02cf b83d 4cb6 8b3d 9d58 553d
000002b0: 465d e03e 9e02 f93d deea ab3e 7b97 9cbe
000002c0: 08b1 d8be ca98 fe3e aacb 60be c01e 5c3e
000002d0: 7975 403f d6ec 2cbd 1b52 8fbc 64b9 8bbd
000002e0: f473 abbd 79c2 ecbd b288 ba3d c18d d8be
000002f0: 8c95 80be 7dc5 143f c000 913e 1021 03bd
00000300: 72cf 933a f3ce 6f3e 626f ac3c 7ee9 07bc
00000310: ec32 1f3a 028e b33c 5a92 be3e 6e86 e63d
00000320: 57dc 9cbd d6a3 8fbd 518e a1be 5c7f 1abe
00000330: 025c b43e 08d6 a43e 1b46 1cbf 024d 863e
00000340: 92ca bd3e a932 8abe f037 e03e 0eba a9be
00000350: e397 d73d 6252 0b3f 78e7 c53c a7fe eebd
00000360: dd65 203c 5196 8d3d 5feb 91be 2a23 a23d
00000370: 73c8 b1be 73fc 20be 2cef bfbd 0e4e 453f
00000380: f38c 5a3e d751 613d 5947 20bf 9757 163d
00000390: a256 36be 85b0 943d 58ab 113e 71c9 053f
000003a0: 7205 d63e fa86 acbe bfd4 8dbd fdda 1a3e
000003b0: b626 0f3e 0013 15bd 2a46 ae3e e1ab 0d3f
000003c0: fcf4 94be 7039 fe3d 81a0 79be 7297 ae3e
000003d0: fb2d 71bf d8ff 3ebf 4f66 b23e 9e0c bfbe
000003e0: 916a 9dbc bef4 b5be 1816 e23d c3ab 40be
000003f0: 174b 09bc 6900 a83e 0958 16bf 9a7e 5ebe

fcs1.bias f4 [512]
-0.6048688 -0.38709632 -0.23628685 -0.5820759 -0.43163997 0.053641077 -0.23449257 -0.070016064
-0.65384614 -0.3466283 -0.40361604 -0.7351926 -0.06568726 -0.48336962 -0.38241646 0.19667652
-0.39737785 -0.5982331 -0.43017808 0.28754714 -0.2534084 -0.2486156 -0.64263487 0.06957307
-0.42290464 -0.2802139 -0.5005372 -0.44431442 -0.5377254 -0.51624715 -0.54171944 -0.3832809
-0.34891132 -0.19977736 -0.26700944 -0.07494828 -0.4168205 -0.6926318 -0.32716376 -0.5063915
-0.4506294 -0.2722282 -0.34436756 -0.15139145 -0.4339011 -0.49714062 -0.46195647 -0.4742484
-0.100730024 -0.7607791 -0.37821066 -0.18246505 -0.28324038 -0.25451994 -0.20404068 -0.38661802
-0.6887637 -0.39947852 -0.30906463 -0.20062657 -0.0040347343 -0.21861665 -0.13298422 -0.2103892
-0.4562957 -0.2742712 -0.15995945 -0.44244868 -0.6685349 -0.37282968 -0.40586126 -0.4176737
-0.30939123 -0.46767053 0.13381806 -0.2731401 -0.0815726 -0.12646836 -0.6575519 -0.195905
-0.4234262 -0.7183798 -0.18433547 -0.14503087 -0.33049607 -0.4065848 -0.6673542 -0.397368
-0.22440891 -0.27659333 -0.42955273 -0.617767 -0.23654419 -0.13683218 -0.47221586 -0.34362385
-0.2483417 -0.59649456 -0.57042104 -0.25825447 -0.40489236 -0.2838726 0.01702918 -0.42755786
-0.22641896 -0.3086384 -0.36643758 -0.5458806 -0.33202687 -0.35875136 -0.27650642 -0.29407042
-0.6029614 -0.44674903 -0.168249 -0.51090884 -0.44163004 -0.36871997 -0.6092184 -0.2128914
-0.38920546 -0.45973825 -0.45519793 -0.121161215 -0.3715693 -0.07631372 -0.40153125 -0.52468485
-0.19746818 -0.20607837 -0.5079461 -0.3876477 -0.33213654 -0.7335941 -0.6021868 -0.32672414
-0.46251667 0.039223313 -0.12721133 0.02767008 -0.4450719 -0.32848275 -0.4931081 -0.24601708
-0.29764545 -0.3299616 -0.5309159 -0.40132892 -0.3254707 -0.46153098 -0.42714274 -0.42586023
-0.2081194 -0.054542173 -0.22832133 -0.42603117 0.04146647 -0.36940905 -0.5800803 -0.0621213
-0.32719666 -0.5331023 -0.6989906 -0.5866322 -0.56494206 -0.5535138 -0.50771356 -0.6243188
-0.43885824 -0.46306473 -0.58911395 -0.19165926 -0.37105906 0.06317913 -0.65687233 -0.5699156
-0.32063425 -0.37028325 -0.5768969 -0.4294943 -0.19232331 -0.26833075 -0.64450693 -0.23682311
-0.27202222 -0.3296035 -0.32825103 -0.5377998 -0.39093414 -0.5239201 -0.41824952 -0.19819343
-0.34044155 -0.32605812 -0.22374426 -0.5191031 -0.4484985 -0.38370055 -0.33522347 -0.457365
-0.48011306 -0.20278817 -0.25747818 -0.23974077 -0.41862416 -0.16780668 -0.39481393 -0.5856868
-0.45534784 -0.4349498 -0.21387807 -0.31817147 -0.6614512 -0.5879733 -0.25480643 -0.088665046
-0.3277215 -0.47853878 -0.5975497 -0.50373983 -0.088898525 -0.4431814 -0.3794441 -0.46816704
-0.6220397 -0.3167064 -0.21975815 -0.15707593 -0.21370888 -0.6832644 -0.28304142 -0.18413267
-0.15806164 -0.19952732 -0.27736858 -0.21592276 -0.6172822 -0.077025436 -0.4851271 -0.1963053
-0.48823223 -0.5007522 -0.42066544 -0.75400484 -0.26453185 -0.18178676 -0.33562493 -0.6735815
-0.12450326 -0.5723592 -0.03678303 -0.30539054 -0.19589229 -0.4665604 -0.41875145 -0.07883863
00000000: afd8 1abf 7d31 c6be 2ef5 71be ed02 15bf
00000010: eaff dcbe bfb6 5b3d d21e 70be 9564 8fbd
00000020: 7662 27bf 4479 b1be c3a6 cebe 9535 3cbf
00000030: 0b87 86bd 397c f7be 17cc c3be 9265 493e
00000040: 1c75 cbbe ce25 19bf 4d40 dcbe 6139 933e
00000050: bfbe 81be 1695 7ebe b883 24bf 537c 8e3d
00000060: f586 d8be 3278 8fbe 3523 00bf 2e7d e3be
00000070: 5fa8 09bf c628 04bf 20ae 0abf 653d c4be
00000080: 81a4 b2be 7092 4cbe 76b5 88be 7c7e 99bd
00000090: 7f69 d5be 5150 31bf 0282 a7be e0a2 01bf
000000a0: e6b8 e6be 7f61 8bbe f250 b0be 5c06 1bbe
000000b0: 4928 debe 3789 febe 8f85 ecbe b0d0 f2be
000000c0: 8b4b cebd 6bc2 42bf d4a4 c1be 1ed8 3abe
000000d0: e204 91be 7050 82be 0af0 50be ccf2 c5be
000000e0: d152 30bf 7388 ccbe b83d 9ebe 0d71 4dbe
000000f0: ce35 84bb 0bdd 5fbe 042d 08be 4470 57be
00000100: 979f e9be 466d 8cbe 69cc 23be a288 e2be
00000110: 1a25 2bbf 88e3 bebe 0ccd cfbe 54d9 d5be
00000120: 8768 9ebe 8372 efbe 9a07 093e 05d9 8bbe
00000130: 890f a7bd ec80 01be 5255 28bf 529b 48be
00000140: 52cb d8be bde7 37bf 70c2 3cbe f982 14be
00000150: c836 a9be e22b d0be bad7 2abf d273 cbbe
00000160: 73cb 65be a49d 8dbe 56ee dbbe fa25 1ebf
00000170: a438 72be bc1d 0cbe 47c6 f1be 77ef afbe
00000180: 494d 7ebe deb3 18bf 1d07 12bf ee39 84be
00000190: 0d4e cfbe c057 91be c780 8b3c dde8 dabe
000001a0: 5fda 67be da05 9ebe b59d bbbe d5be 0bbf
000001b0: 6dff a9be 42ae b7be 4092 8dbe 6690 96be
000001c0: ae5b 1abf 4abc e4be 7749 2cbe ecca 02bf
000001d0: 551d e2be ddc8 bcbe bdf5 1bbf 3400 5abe
000001e0: f045 c7be d062 ebbe b40f e9be 5f23 f8bd
000001f0: 553e bebe 5e4a 9cbd 8195 cdbe bf51 06bf
00000200: 1935 4abe 3506 53be c108 02bf c279 c6be
00000210: cd0d aabe d3cc 3bbf ea28 1abf 6348 a7be
00000220: fcce ecbe a0a8 203d b043 02be 5dac e23c
00000230: 77e0 e3be e42e a8be aa78 fcbe e7eb 7bbe
00000240: fc64 98be baf0 a8be 1bea 07bf fc7a cdbe
00000250: 18a4 a6be ca4d ecbe 74b2 dabe 5a0a dabe
00000260: 411d 55be 9d67 5fbd 11cd 69be c220 dabe
00000270: bfd8 293d 2f23 bdbe 2480 14bf e772 7ebd
00000280: 5286 a7be 6479 08bf 0cf1 32bf 872d 16bf
00000290: 0ba0 10bf 15b3 0dbf 84f9 01bf 5bd3 1fbf
000002a0: 07b2 e0be d216 edbe 2cd0 16bf 5342 44be
000002b0: 74fb bdbe 0f64 813d c928 28bf fde5 11bf
000002c0: 2c2a a4be c495 bdbe 84af 13bf ade6 dbbe
000002d0: 67f0 44be a662 89be 68fe 24bf c281 72be
000002e0: 7f46 8bbe cac1 a8be 8510 a8be 3fad 09bf
000002f0: 8528 c8be a11f 06bf cd24 d6be 38f3 4abe
00000300: 5b4e aebe 17f1 a6be 371d 65be f1e3 04bf
00000310: 98a1 e5be 6674 c4be 69a2 abbe bf2b eabe
00000320: 61d1 f5be b4a7 4fbe 2ed4 83be 9b7e 75be
00000330: e855 d6be 84d5 2bbe 0d25 cabe 92ef 15bf
00000340: 5a23 e9be bdb1 debe da02 5bbe 5fe7 a2be
00000350: de54 29bf 6b85 16bf fd75 82be 0596 b5bd
00000360: 1dcb a7be 0903 f5be 04f9 18bf 18f5 00bf
00000370: 6e10 b6bd ace8 e2be 7f46 c2be 97b3 efbe
00000380: fe3d 1fbf 5727 a2be 4808 61be 83d8 20be
00000390: 80d6 5abe 6aea 2ebf ceea 90be 468d 3cbe
000003a0: e9da 21be e450 4cbe 4103 8ebe db1a 5dbe
000003b0: 3506 1ebf 83bf 9dbd 9462 f8be 4204 49be
000003c0: 93f9 f9be 4c31 00bf 7661 d7be 7606 41bf
000003d0: b870 87be 4f26 3abe 08d7 abbe d66f 2cbf
000003e0: 91fb febd 2286 12bf cda9 16bd 265c 9cbe
000003f0: fd97 48be 01e1 eebe 9766 d6be 2676 a1bd

fc2.weight f4 [256, 516]
0.5817345 0.053810842 -0.17189075 -0.18017027 -0.30021968 0.3468605 0.30652833 0.08440256
-0.16924596 0.1910493 0.3744985 -0.5832305 -1.0896091 0.220322 0.10441641 0.22571985
0.6387296 -0.2195398 -0.7420473 -0.07770189 0.091837935 0.46951392 -0.34447947 -0.35867077
-0.4390248 -1.399319 -0.046539877 0.28548852 -0.5586264 0.17160371 -0.5477014 -0.54835916
0.04360777 0.9186711 0.015564253 0.39973128 -1.7941716 -0.046147425 -2.637907 0.7018366
-1.2819898 0.3734934 -0.26418713 -1.0501174 -1.1238047 -0.32455227 -0.24673514 0.33732006
-0.4238155 -0.70195895 0.35707 -0.39121154 -0.41428906 -0.30683365 -1.0630759 -0.30126938
0.6597499 -0.47334656 -0.6825703 -1.0686176 0.32333997 -0.26305395 0.047935814 0.048956543
-0.044478863 -1.306054 -0.19312139 -0.16298822 0.91524243 0.17292026 0.5033988 0.01673335
-0.07328512 -0.05738954 -0.17183998 -0.24746671 0.16545789 -0.2915887 0.077935986 0.07910951
0.324978 -0.08438825 -1.0414165 -0.5792688 0.06756988 0.03533951 -0.49954093 -0.16431707
-0.5042291 -0.7306798 0.6151238 0.111621976 -0.067294754 0.28290564 -0.09267495 -0.31522828
-0.14193289 -0.035325594 0.08703076 -0.08309003 0.09254911 -0.14391756 0.28209502 0.2542609
-0.5388261 -0.34462 -0.15309016 0.27386835 -0.28590688 -0.05045774 0.3882161 0.017704496
-1.0018384 -0.33759 0.007640334 -0.30847695 0.3768007 0.14419624 -0.21842542 0.22006038
-0.39360738 -0.011100266 0.35749513 0.18359989 -0.6339931 0.8327943 -0.28253406 0.7592829
-0.43128023 -1.2988046 0.19071527 -0.3653086 0.16680947 -0.11467585 -0.076553 -0.17716439
-0.24652585 -0.8508908 0.15383309 0.520793 -1.4011319 -0.53571194 -0.4035165 0.6177919
-1.0747906 -0.022178214 -0.004734557 -1.0108731 -1.9334244 -0.20213355 0.012585052 -0.17022261
-0.08578117 -0.4356925 -0.3275046 -1.0058396 -0.6612068 -0.05859942 0.047517747 -0.110987484
0.48796865 -0.8512729 0.24850273 0.150704 -0.10499657 0.49728075 -0.5449869 -0.17568
-0.49885327 0.39079854 0.36901966 -0.4253143 -0.56486225 0.47232258 -2.339027 0.12553407
-0.37958696 -0.03032802 0.21257395 0.65858775 -0.04586723 -0.76196927 0.07810532 -0.12733439
-0.1462682 -0.08204291 0.52451867 0.06635606 1.1053749 -0.4187727 0.111740135 -0.21273072
0.34197718 0.60179305 0.79397804 -0.32417905 -0.59625083 -0.11153208 -0.051326476 -0.3602497
0.059883274 0.039967917 -0.08924183 -0.29326317 0.07114524 -0.05099518 -0.874611 1.2185211
0.3127924 -0.1166543 0.4863217 -0.14504923 -0.19769901 -0.8211186 -0.2121236 -1.7777
-0.55614215 -2.0894427 0.21043284 -0.2953791 -0.4793656 0.10808533 0.05337858 -0.3244827
0.67085993 0.87966543 -0.42030856 0.27764365 0.1544273 -0.6436044 -0.6648252 0.5071652
-0.624881 -0.88673115 0.41912013 0.10373008 0.27073348 0.03439143 -2.3452413 -1.1880292
0.24274258 -0.10500132 0.055424407 -0.6335807 0.24103259 -1.2888482 -0.23214409 0.04910959
-0.32094663 -0.001011921 0.014103147 0.8307329 -0.04838916 0.48810342 -0.9944364 0.33477148
00000000: 8dec 143f c268 5c3d 2104 30be 8e7e 38be
00000010: 65b6 99be b397 b13e 48f1 9c3e 40db ac3d
00000020: d04e 2dbe 6da2 433e 44be bf3e 984e 15bf
00000030: 5078 8bbf 179c 613e 45d8 d53d 1b23 673e
00000040: c883 233f 0bcf 60be d0f6 3dbf 2b22 9fbd
00000050: 8715 bc3d 2164 f03e 9d5f b0be b2a3 b7be
00000060: dcc7 e0be e31c b3bf 99a0 3ebd 8d2b 923e
00000070: 2402 0fbf e2b8 2f3e 2936 0cbf 4461 0cbf
00000080: 109e 323d 072e 6b3f 3501 7f3c 94a9 cc3e
00000090: 6aa7 e5bf 1505 3dbd 78d3 28c0 90ab 333f
000000a0: 3e18 a4bf 873a bf3e 8943 87be 3f6a 86bf
000000b0: d5d8 8fbf b72b a6be 23a8 7cbe 37b5 ac3e
000000c0: 58fe d8be 95b3 33bf e1d1 b63e e14c c8be
000000d0: b21d d4be 4d19 9dbe df12 88bf fb3f 9abe
000000e0: 5fe5 283f 7b5a f2be edbc 2ebf 76c8 88bf
000000f0: d18c a53e 02af 86be 5858 443d a886 483d
00000100: 782f 36bd c72c a7bf 9dc1 45be 62e6 26be
00000110: 544d 6a3f 0212 313e bede 003f 6114 893c
00000120: 8216 96bd 4b11 6bbd d2f6 2fbe ea67 7dbe
00000130: cb6d 293e 1d4b 95be e79c 9f3d 2b04 a23d
00000140: 8463 a63e bfd3 acbd 234d 85bf f64a 14bf
00000150: 1462 8a3d 29c0 103d d4c3 ffbe bc42 28be
00000160: 2915 01bf d50d 3bbf c178 1d3f 109a e43d
00000170: d5d1 89bd 02d9 903e 5dcc bdbd 9a65 a1be
00000180: db56 11be 92b1 10bd 2f3d b23d 1b2b aabd
00000190: 638a bd3d 205f 13be c26e 903e 7c2e 823e
000001a0: 82f0 09bf 0872 b0be abc3 1cbe 7938 8c3e
000001b0: 6362 92be c6ac 4ebd 43c4 c63e 0509 913c
000001c0: 3e3c 80bf 99d8 acbe c45b fa3b b1f0 9dbe
000001d0: 05ec c03e 2ea8 133e eaaa 5fbe 8257 613e
000001e0: e886 c9be e4dd 35bc 9a09 b73e 9c01 3c3e
000001f0: 5f4d 22bf 0232 553f 4ea8 90be 5d60 423f
00000200: c3d0 dcbe 3b3f a6bf dd4a 433e bb09 bbbe
00000210: 1ad0 2a3e 2cdb eabd d2c7 9cbd 956a 35be
00000220: 4671 7cbe fbd3 59bf 6c86 1d3e b152 053f
00000230: 4a58 b3bf 6b24 09bf b799 cebe 9c27 1e3f
00000240: bd92 89bf 16af b5bc 5824 9bbb 4a64 81bf
00000250: 737a f7bf 19fc 4ebe 8931 4e3c d64e 2ebe
00000260: 0aae afbd 1613 dfbe afae a7be 5abf 80bf
00000270: d944 29bf f205 70bd f8a1 423d 684d e3bd
00000280: 07d7 f93e 05ed 59bf 8077 7e3e 2652 1a3e
00000290: 7108 d7bd 959b fe3e 4384 0bbf 75e5 33be
000002a0: b269 ffbe bf16 c83e 25f0 bc3e ccc2 d9be
000002b0: d09a 10bf 44d4 f13e 9eb2 15c0 018c 003e
000002c0: 3959 c2be 7872 f8bc fcac 593e 3599 283f
000002d0: 47df 3bbd 6b10 43bf aff5 9f3d f263 02be
000002e0: 55c7 15be 1d06 a8bd db46 063f b0e5 873d
000002f0: ed7c 8d3f 6069 d6be 03d8 e43d 15d6 59be
00000300: a217 af3e 1c0f 1a3f 2542 4b3f ccfa a5be
00000310: e5a3 18bf ee6a e4bd b63b 52bd a672 b8be
00000320: 2a48 753d 66b5 233d 6cc4 b6bd 9726 96be
00000330: 98b4 913d 52e0 50bd 82e6 5fbf 80f8 9b3f
00000340: 5326 a03e 73e8 eebd 28ff f83e c987 14be
00000350: 9c71 4abe d434 52bf ee36 59be ac8b e3bf
00000360: 555f 0ebf 6eb9 05c0 b57b 573e ee3b 97be
00000370: 686f f5be d75b dd3d 7fa3 5a3d 9922 a6be
00000380: 7abd 2b3f c131 613f af32 d7be 4f27 8e3e
00000390: 3122 1e3e 42c3 24bf fc31 2abf 94d5 013f
000003a0: 34f8 1fbf d000 63bf ea96 d63e 7070 d43d
000003b0: 949d 8a3e 07de 0c3d 6f18 16c0 5711 98bf
000003c0: 8391 783e ef0a d7bd b404 633d 5832 22bf
000003d0: 3fd1 763e faf8 a4bf 2eb7 6dbe 2327 493d
000003e0: 1e53 a4be 6fa2 84ba e310 673c e9aa 543f
000003f0: b633 46bd b1e8 f93e 6293 7ebf 2b67 ab3e

fc2.bias f4 [256]
-0.11628891 0.21359321 0.29738766 0.16609147 0.31531882 -0.30560488 0.07161601 0.039553568
0.18344541 -0.07842778 0.2839335 0.3067828 0.008368607 0.20509839 0.16311634 0.23989037
0.069860056 0.14301181 0.03018412 0.21809356 0.026175395 0.119065695 0.07216055 0.028046094
-0.007720367 -0.05294805 0.15452896 -0.062632434 -0.08116599 0.13075596 -0.10168551 0.06794967
-0.0071337796 -0.034026425 -0.05351592 -0.31614867 0.022394776 0.12886244 0.1658072 -0.22819614
0.07993857 -0.09456209 0.062881045 0.10389841 0.16415878 0.08337657 0.20890455 -0.11275059
-0.038549732 -0.05241186 -0.022277933 -0.15792339 -0.09161638 -0.114684254 0.071503356 0.038684834
0.0837313 0.167504 -0.07052417 0.08211313 0.094677955 0.09412461 0.26896447 -0.08984436
0.04771942 0.048764575 0.084383376 -0.10632453 0.14986324 0.08594423 -0.03788139 -0.06032248
0.08075703 -0.06175798 0.057489034 -0.0018402218 -0.108567074 0.1222864 0.0925032 -0.19104537
0.38650158 -0.08597448 0.01997275 -0.14751713 -0.08592249 0.04520467 0.12905774 -0.10055881
0.06477312 0.16141193 0.062432487 0.37076083 0.11010524 0.106584705 0.17898606 0.13086566
0.015482266 -0.014755196 -0.5098182 0.0142033715 -0.068257034 -0.24411839 0.16582939 0.22491664
-0.14885172 0.21816212 -0.016067924 0.12388151 -0.07391382 -0.08594418 0.26095542 0.1653621
-0.08236314 -0.059741728 0.02140445 -0.2198321 -0.11279794 0.26306286 0.09174406 0.16694115
0.22019625 0.1164227 -0.038649634 0.10898232 -0.03217187 -0.06316867 -0.03568182 0.091182314
0.003674464 -0.07634169 -0.13485661 0.29844648 0.06412326 0.25988597 0.11375956 -0.059291918
0.097835064 -0.06369456 0.24815093 0.012709643 0.15950726 0.07285572 0.37709025 0.21306944
0.03908538 0.081568554 -0.025313526 0.16875121 0.2097471 0.02048092 0.04254075 0.20450021
0.17303964 -0.016405035 0.059981644 0.19402806 0.18312728 0.22563006 -0.03928088 0.3603476
-0.069875896 0.15856257 0.12832463 0.099568546 -0.102961905 0.10249294 0.15329598 0.25740504
0.12313019 0.07720998 0.034663647 -0.07051501 0.17471088 -0.025686143 0.13243303 0.14115587
-0.36111787 0.09148302 -0.07709093 0.12741898 0.3673335 0.009842276 0.0721319 0.31131783
-0.062348552 -0.07513384 -0.09810323 0.12809427 -0.04054647 -0.048945438 -0.05117852 -0.028179293
0.099748835 0.028676122 0.2398103 0.28590178 0.20299424 0.041572392 -0.008333152 0.10204044
0.15616938 -0.07305307 0.1637527 0.08564757 -0.046328716 0.122626856 -0.03129258 0.12276037
0.208088 0.024430178 0.06385988 -0.014477333 0.2817946 -0.053481888 -0.06513103 0.22185096
0.19829547 0.15450203 -0.080536634 0.036152165 0.036858615 0.016841825 0.0655978 -0.030823408
0.019338055 -0.011000897 0.017036524 0.10306678 -0.053270888 0.2501153 -0.0862513 -0.0202599
-0.040351167 0.16195402 0.14371964 0.05335544 0.20165509 0.22596295 0.14894025 0.19378696
-0.018651834 0.0030251618 0.29867846 0.055510655 -0.052376144 0.042513452 -0.033234324 0.0148212295
-0.011492052 -0.09128174 -0.060740408 0.142871 -0.064477295 0.11863607 0.28696266 -0.27186123
00000000: e128 eebd 2eb8 5a3e 3243 983e e213 2a3e
00000010: 7871 a13e 3e78 9cbe 6aab 923d ec02 223d
00000020: 1dd9 3b3e be9e a0bd bb5f 913e a312 9d3e
00000030: 7b1c 093c 5005 523e f807 273e d2a5 753e
00000040: ca12 8f3d b071 123e b044 f73c eb53 5f3e
00000050: c86d d63c b7d8 f33d e9c8 933d ecc0 e53c
00000060: 22fb fcbb 0ee0 58bd d73c 1e3e 6f45 80bd
00000070: 5b3a a6bd e4e4 053e 7e40 d0bd 3229 8b3d
00000080: 7bc2 e9bb 4b5f 0bbd 8233 5bbd 3dde a1be
00000090: 4075 b73c 84f4 033e 5dc9 293e 40ac 69be
000000a0: d5b6 a33d c5a9 c1bd c7c7 803d b1c8 d43d
000000b0: 3d19 283e 56c1 aa3d 13eb 553e c8e9 e6bd
000000c0: 53e6 1dbd d2ad 56bd 3680 b6bc abb6 21be
000000d0: 5ea1 bbbd 94df eabd 5a70 923d fd73 1e3d
000000e0: 517b ab3d 2b86 2b3e fa6e 90bd ee2a a83d
000000f0: 84e6 c13d 67c4 c03d b6b5 893e 5200 b8bd
00000100: 7075 433d 5dbd 473d 31d1 ac3d adc0 d9bd
00000110: c075 193e 8703 b03d 8429 1bbd b414 77bd
00000120: f163 a53d f0f5 7cbd 9f79 6b3d 9933 f1ba
00000130: 6a58 debd 4b71 fa3d 5172 bd3d 66a1 43be
00000140: 89e3 c53e 6313 b0bd e59d a33c bb0e 17be
00000150: 21f8 afbd 8828 393d b627 043e c7f1 cdbd
00000160: c5a7 843d 2b49 253e 35b9 7f3d 5dd4 bd3e
00000170: db7e e13d 1549 da3d 1f48 373e a601 063e
00000180: 55a9 7d3c c7bf 71bc 7283 02bf 42b5 683c
00000190: 58ca 8bbd 2cfa 79be 2ecf 293e 8c50 663e
000001a0: 966c 18be e465 5f3e e1a0 83bc 97b5 fd3d
000001b0: 2160 97bd 8103 b0bd f39b 853e af54 293e
000001c0: 02ae a8bd beb3 74bd 6358 af3c ab1b 61be
000001d0: 9b02 e7bd 2db0 863e 4fe4 bb3d 9ff2 2a3e
000001e0: 207b 613e 066f ee3d 144f 1ebd 1f32 df3d
000001f0: a7c6 03bd 935e 81bd 1a27 12bd cbbd ba3d
00000200: 47cf 703b 0859 9cbd da17 0abe facd 983e
00000210: 0e53 833d c60f 853e c6fa e83d 15dc 72bd
00000220: c05d c83d 4b72 82bd 471b 7e3e 1b3c 503c
00000230: df55 233e 6135 953d f911 c13e e02e 5a3e
00000240: fe17 203d 6a0d a73d 505e cfbc 1ecd 2c3e
00000250: f2c7 563e 9ac7 a73c 363f 2e3d 8168 513e
00000260: 4e31 313e da63 86bc 50af 753d 4baf 463e
00000270: b885 3b3e 910b 673e fde4 20bd 7b7f b83e
00000280: 181b 8fbd 3a5e 223e 8867 033e 98ea cb3d
00000290: b1dd d2bd d2e7 d13d 9ff9 1c3e 98ca 833e
000002a0: ae2b fc3d 4420 9e3d 78fb 0d3d 2c6a 90bd
000002b0: 69e7 323e bf6b d2bc 869c 073e 2a8b 103e
000002c0: 71e4 b8be 735b bb3d d9e1 9dbd 1f7a 023e
000002d0: 2313 bc3e 7f41 213c e4b9 933d 0d65 9f3e
000002e0: 3261 7fbd c5df 99bd 59ea c8bd 252b 033e
000002f0: 0e14 26bd 037b 48bd 91a0 51bd 43d8 e6bc
00000300: 1e49 cc3d 30ea ea3c d590 753e b861 923e
00000310: b9dd 4f3e d047 2a3d c687 08bc 94fa d03d
00000320: deea 1f3e d99c 95bd caae 273e fe67 af3d
00000330: 2ec3 3dbd ca23 fb3d a62c 00bd ca69 fb3d
00000340: 0515 553e cc21 c83c f8c8 823d 5632 6dbc
00000350: 6247 903e d30f 5bbd 6b63 85bd e62c 633e
00000360: f80d 4b3e c835 1e3e 64f0 a4bd 4b14 143d
00000370: 0ff9 163d def7 893c 2458 863d 5f81 fcbc
00000380: d76a 9e3c 1b3d 34bc 2e90 8b3c ad14 d33d
00000390: 9332 5abd 1d0f 803e 86a4 b0bd 17f8 a5bc
000003a0: 4447 25bd 46d7 253e 3e2b 133e 3c8b 5a3d
000003b0: ac7e 4e3e d562 673e cb83 183e 1770 463e
000003c0: bbcb 98bc cb41 463b 62ec 983e 245f 633d
000003d0: 5e88 56bd 9622 2e3d b720 08bd bed4 723c
000003e0: 2949 3cbc ecf1 babd efca 78bd c74c 123e
000003f0: ac0c 84bd 78f7 f23d c5ec 923e 6531 8bbe

fc3.weight f4 [1, 256]
-0.032250967 0.010160017 0.010263668 0.0116711045 0.011482183 -0.020676183 0.01032779 0.017609626
0.014091039 -0.0013941195 0.010535487 0.00952367 -0.013050564 0.0135996295 0.011182593 0.010607046
0.025037855 0.011210163 -0.011457926 0.00921959 0.01706206 0.015187387 -0.010408033 -0.020959154
0.020965412 -0.01849724 0.008406357 -0.007982684 -0.0017525768 0.011519963 -0.022153577 -0.010083563
0.01259805 0.059031315 -0.023829482 -0.059703343 -0.016996609 0.011541504 0.0115563385 -0.051316567
-0.010385384 0.0018847843 0.014926658 0.015384707 0.010597611 0.011963633 0.012635188 -0.048154857
0.0015948423 -0.00832622 -0.011352461 -0.009494355 0.02462744 -0.00023324678 0.011602264 -0.025223643
-0.010593498 0.012024524 0.01744868 0.009721779 0.019144354 0.013408491 0.0118377 -0.011465953
-0.09112115 -0.07879828 0.0110602435 -0.0061399518 0.010884588 0.009120253 -0.033258572 0.0330991
0.012699682 -0.06751666 0.012728681 -0.045859903 -0.011092357 0.0109719215 0.013998628 0.106975645
0.008184234 -0.002825166 -0.008757432 -0.046869732 -0.005510626 0.0083780335 0.012070941 -0.03224588
0.009879018 0.010067068 -0.015492961 0.008792501 0.016345033 0.013664419 0.01744744 0.010659389
-0.009738921 -0.012755935 0.08352081 0.014338436 -0.0019651062 -0.083791256 0.017033797 0.01577924
-0.18855847 0.01014014 -0.013429094 0.007948376 -0.019281399 -0.023258436 0.008712678 0.008775371
0.0057933913 -0.03276797 0.025798026 -0.026559507 0.095152244 0.010970383 0.013414178 0.01486339
0.009578453 0.011421002 -0.03443257 0.011999715 -0.010827769 -0.025276288 -0.21185857 0.015370658
-0.015406177 0.00094378035 0.027419489 0.009747828 -0.008625764 0.0075233327 0.008234941 -0.0012344717
0.012913765 0.001717447 0.0085012065 -0.010462216 0.01074853 0.029776962 0.0106460685 0.01122582
0.026870908 0.028822143 -0.009068929 0.013946814 0.01047911 -0.013090548 -0.011216177 0.014625695
0.015753856 -0.026104543 0.015137967 0.01302811 0.010314379 0.015692154 0.038752157 0.013163583
0.03288619 0.009369553 0.022661936 0.010334687 -0.00060128636 0.01198328 0.016911222 0.01060494
0.01451188 0.018441465 0.014308627 -0.0122257555 0.011220196 -0.00931532 0.017903514 0.012584974
-0.05576912 -0.012812384 4.4556968e-05 0.009653787 0.009124403 0.03441304 -0.012901922 0.011396364
-0.011670023 -0.012100862 -0.00922441 0.014472437 0.020304384 -0.014950423 -0.10914492 -0.105405
0.011791175 -0.011328844 0.010940317 0.010924673 0.022734543 -0.010972298 -0.014057046 0.018384125
0.012796942 -0.04198822 0.014311267 0.009824003 -0.01000995 0.011934211 0.001981267 0.014301154
0.011299654 -0.01069945 0.021784732 -0.014327515 0.017355671 0.005221755 0.08113974 0.015051838
0.013085306 0.010487215 0.06505521 0.048244584 0.013403528 0.012425759 0.013988599 -0.009569655
0.016525643 -0.010875845 -0.011551185 0.012144434 -0.05242111 0.011128506 0.0041763554 -0.14325103
-0.01975534 0.008976788 0.015509935 -0.0659518 0.008916606 0.016278077 0.010995353 0.016383173
-0.05217154 -0.012998841 0.0120262625 0.009932775 -0.008608323 0.017394437 -0.028285198 -0.012749746
0.016959295 0.00032911793 -0.0044282763 0.01069964 -0.0014129495 0.0093508605 0.013295138 -0.043981746
00000000: 9719 04bd 3376 263c f228 283c 2938 3f3c
00000010: c41f 3c3c 1961 a9bc e435 293c 1042 903c
00000020: 1ade 663c e3ba b6ba 099d 2c3c 2b09 1c3c
00000030: 08d2 55bc fbd0 5e3c 3237 373c 2dc9 2d3c
00000040: 301c cd3c d5aa 373c 06ba 3bbc c30d 173c
00000050: bcc5 8b3c 85d4 783c 7486 2abc 88b2 abbc
00000060: a8bf ab3c 8687 97bc d1ba 093c cec9 02bc
00000070: b8b6 e5ba 3abe 3c3c 6b7b b5bc 8735 25bc
00000080: 0d68 4e3c d2ca 713d 0c36 c3bc 7e8b 74bd
00000090: 793c 8bbc 9418 3d3c cc56 3d3c 5231 52bd
000000a0: 7527 2abc de0a f73a f18e 743c 2310 7c3c
000000b0: 9aa1 2d3c 1d03 443c d203 4f3c 073e 45bd
000000c0: 070a d13a b36a 08bc acff 39bc 368e 1bbc
000000d0: 7cbf c93c b593 74b9 6c17 3e3c d0a1 cebc
000000e0: 5a90 2dbc 8202 453c 89f0 8e3c 1948 1f3c
000000f0: 9fd4 9c3c 4aaf 5b3c eaf2 413c b1db 3bbc
00000100: ba9d babd fe60 a1bd 0636 353c a631 c9bb
00000110: 4555 323c 1d6d 153c 243a 08bd ec92 073d
00000120: 5412 503c 2d46 8abd f58b 503c 98d7 3bbd
00000130: b8bc 35bc 93c3 333c 805a 653c 0c16 db3d
00000140: 2a17 063c 6c26 39bb 557b 0fbc 7afa 3fbd
00000150: 7b92 b4bb 0544 093c 32c5 453c 4214 04bd
00000160: 9bdb 213c 58f0 243c 30d6 7dbc 6c0e 103c
00000170: 05e6 853c bae0 5f3c efed 8e3c b8a4 2e3c
00000180: ff8f 1fbc 45fe 50bc f50c ab3d c2eb 6a3c
00000190: 03c9 00bb c09a abbd 768a 8b3c 7743 813c
000001a0: 7915 41be d422 263c b405 5cbc e839 023c
000001b0: 06f4 9dbc 7a88 bebc 9fbf 0e3c 93c6 0f3c
000001c0: 7dd6 bd3b b537 06bd 6256 d33c 5393 d9bc
000001d0: 2edf c23d 1fbd 333c 24c7 5b3c 9385 733c
000001e0: f2ee 1c3c 281f 3b3c 2b09 0dbd 749a 443c
000001f0: f466 31bc 3810 cfbc 74f1 58be 36d5 7b3c
00000200: 316a 7cbc 0768 773a d69e e03c 5bb5 1f3c
00000210: 1453 0dbc 4a86 f63b d9eb 063c ffcd a1ba
00000220: 4294 533c f51b e13a a548 0b3c b769 2bbc
00000230: 9a1a 303c d1ee f33c d96c 2e3c 80ec 373c
00000240: 6120 dc3c 6a1c ec3c d895 14bc 2e81 643c
00000250: 93b0 2b3c bd79 56bc 0ec4 37bc 9ca0 6f3c
00000260: 3b0e 813c 32d9 d5bc 3c05 783c db73 553c
00000270: a4fd 283c d58c 803c 95ba 1e3d 12ac 573c
00000280: abb3 063d c182 193c 86a5 b93c d252 293c
00000290: a59f 1dba 8555 443c 6789 8a3c 58c0 2d3c
000002a0: 3dc3 6d3c 8e12 973c bb6e 6a3c 894e 48bc
000002b0: ead4 373c 499f 18bc 64aa 923c 3531 4e3c
000002c0: 296e 64bd 09eb 51bc aee2 3a38 eb2a 1e3c
000002d0: 857e 153c b0f4 0c3d 9562 53bc d1b7 3a3c
000002e0: a033 3fbc b242 46bc fb21 17bc cd1d 6d3c
000002f0: 6155 a63c 9ef2 74bc 5f87 dfbd 94de d7bd
00000300: c62f 413c 9e9c 39bc 043f 333c 66fd 323c
00000310: cb3d ba3c 27c5 33bc 864f 66bc 4e9a 963c
00000320: 44aa 513c d7fb 2bbd ce79 6a3c dbf4 203c
00000330: c600 24bc b587 433c 25d8 013b 634f 6a3c
00000340: 2f22 393c bf4c 2fbc e575 b23c f4bd 6abc
00000350: 7b2d 8e3c 411b ab3b 982c a63d fc9b 763c
00000360: c063 563c 91d2 2b3c aa3b 853d 1d9c 453d
00000370: 799a 5b3c 6995 4b3c 7030 653c 0bca 1cbc
00000380: c960 873c 9a30 32bc 2e41 3dbc 73f9 463c
00000390: 85b7 56bd 5654 363c cfd9 883b 66b0 12be
000003a0: f3d5 a1bc 6113 133c 621d 7e3c bd11 87bd
000003b0: f516 123c 9a59 853c da25 343c 0136 863c
000003c0: d3b1 55bd 17f9 54bc cd09 453c 14bd 223c
000003d0: ec09 0dbc c77e 8e3c 5cb6 e7bc 50e4 50bc
000003e0: 38ee 8a3c 768d ac39 131b 91bb 8b4d 2f3c
000003f0: b832 b9ba 5a34 193c dad3 593c 3426 34bd
